hw2_classification/model.ckpt (torch, 747735 bytes, 6 tensors)

fc.0.block.0.weight f4 [256, 429]
000000 28 e0 e4 3c ea 0a e4 3c 71 c9 24 be fa 20 68 bd
       0.027938917 0.027837235 -0.16092469 -0.056672074
000010 26 8f ce bd 74 27 38 3c 20 0b 8f 3c e4 fa d4 bc
       -0.10085897 0.011239875 0.01746136 -0.02599854
000020 5b 62 e7 bc 43 c8 7c 3d 9f b6 55 bb eb 31 96 bc
       -0.028245142 0.061714422 -0.0032610071 -0.01833435
000030 cf fd 11 bd 57 48 9c bd 7c fa 1b bd 21 18 44 bd
       -0.03564244 -0.07630985 -0.038080677 -0.047874574
000040 ae 6d 24 3d b9 a5 e2 3d 66 fe 64 3c 6e 08 e6 3c
       0.04014366 0.11066765 0.013976669 0.028080191
000050 83 58 d9 3c 4f 3f 88 3d 4e 2c 6d 3d 41 ab 5f 3d
       0.026531463 0.066527 0.05790358 0.05460668
000060 9c 87 b9 bc 78 99 34 3c c1 b7 d3 3c 13 06 c0 bc
       -0.022647671 0.011022918 0.025844457 -0.023440396
000070 4d c8 3f 3d 14 83 27 3d b0 5b 9a 3c 29 be f1 3c
       0.04682188 0.04089649 0.018842548 0.02950962
000080 a2 5e 78 bd 27 a0 9d bc 2a c2 14 bd d8 51 31 bd
       -0.060637124 -0.019241406 -0.03631798 -0.043290943
000090 e8 5a 46 bd 21 86 2d 3c c8 2d b0 3c c9 cd 7b 3c
       -0.04842654 0.010591061 0.021506205 0.015368887
0000a0 b7 67 28 3a 69 f7 d7 bd b5 79 1a 3d 4d d2 d8 bd
       0.0006424146 -0.105452366 0.037713725 -0.10586987
0000b0 34 d3 c9 bc ad 22 aa bc 0d 36 31 bc 37 8e d3 3c
       -0.024636842 -0.020768488 -0.010816109 0.02582465
0000c0 e7 b0 f2 3c 5c 5f fa 3a c8 ef 15 3c 3b a0 3b 3d
       0.02962537 0.0019101906 0.009151407 0.045807105
0000d0 80 81 b4 3c 24 66 54 3d 27 25 97 3c 7b 64 ab 3a
       0.022034407 0.05185522 0.018450333 0.001307621
0000e0 9d 73 46 3d 59 38 54 bc 51 41 ac 3c 20 48 48 bc
       0.0484501 -0.012952887 0.021027239 -0.012224227
0000f0 c7 cc 45 3d 8f 68 62 3d 7b a5 0b bd 08 a9 24 bc
       0.048290994 0.055275496 -0.03409336 -0.010050066
000100 fe dd e6 3c 41 23 b1 bb 15 4b 86 3c fc aa 19 3d
       0.028182026 -0.005405814 0.016393224 0.03751658
000110 46 5e 19 3d 65 d2 79 3d 1e e5 1f bd 20 ec dc bc
       0.03744342 0.060991663 -0.039036863 -0.026968062
000120 75 09 a6 3c 02 fc 6a 3c 4b 12 ee 3c 36 ac c2 3c
       0.020268181 0.01434231 0.029061457 0.023763757
000130 6e ff bb ba 7c fb bf bc bb 59 a4 3a d8 95 94 bc
       -0.0014343092 -0.023435347 0.0012538949 -0.018137857
000140 ac ff b5 bd a1 ff c4 3d 06 77 be bc 72 f6 6c bc
       -0.08886656 0.0961907 -0.023250114 -0.014463054
000150 dc 79 05 bc 96 fb 37 bd 95 7a 7e 3b d8 66 a4 3b
       -0.008146729 -0.044917665 0.0038830389 0.0050171427
000160 d0 db 4c 3c 77 de 4c bd 82 99 bb 3c fd 4e 56 3d
       0.012503579 -0.050016847 0.022900347 0.052321423
000170 da 95 d1 3d 08 49 82 3b b8 65 9f bc 8a 49 c2 bc
       0.1023366 0.003975991 -0.019457683 -0.023716707
000180 9b 58 06 3d fd 59 87 3d 17 4a 2a bd d0 76 21 3b
       0.032799345 0.06608961 -0.041574564 0.0024637468
000190 ce 81 8f 3d 7e 5c e1 3c e8 86 cf bc ce ae cc 3a
       0.0700718 0.027509924 -0.025332883 0.0015616061
0001a0 c8 fb 4c bd 84 90 f1 3b 22 c0 12 bd e8 06 28 bd
       -0.050044805 0.007371964 -0.035827763 -0.04102221
0001b0 41 4a 2d 3c ba 1c af 3b a1 50 a0 bc 99 af 14 3d
       0.010576786 0.0053440006 -0.019569697 0.036300275
0001c0 d0 74 58 bd 5a b6 30 3d ed b6 bf 3c 99 16 20 bd
       -0.052845776 0.043142654 0.023402655 -0.03908405
0001d0 a7 a8 ed 3b e8 45 3c 3c 17 a1 80 3d 43 67 8d 3c
       0.007252771 0.011491276 0.062807254 0.017261153
0001e0 85 51 e1 3d fd 6e 63 bd 4d 8f e7 3c ec 67 b5 bc
       0.11001877 -0.05552577 0.028266573 -0.02214428
0001f0 ea 8f c0 bd 56 f7 b8 bc a5 c1 b3 bc 32 de bc bc
       -0.094024494 -0.022578876 -0.021942923 -0.02305517
000200 18 60 37 bd 45 73 1f bd 10 82 6a 3d 3b 70 e1 3d
       -0.044769377 -0.03892829 0.057252944 0.110077344
000210 23 4e 52 bd 5b 1a c2 bb 1c 35 1f bc dc 01 eb bc
       -0.05134405 -0.005923552 -0.009717252 -0.02868741
000220 33 ac 3b 3d 7f e7 0d bd 59 ae 70 3d 01 09 83 3d
       0.04581852 -0.0346446 0.05876002 0.06398202
000230 d0 73 52 3d 52 e1 17 3d 5f 3a 4f 3d 85 43 19 bd
       0.05137998 0.037080117 0.050592776 -0.037417907
000240 e9 0b 92 bd 92 f4 91 bd bb 36 8a 3a d0 dc 2e 3c
       -0.07131178 -0.07126726 0.0010544875 0.010672763
000250 8b ff 6a bc 34 b6 1e bc 4d 05 c8 bb d8 33 3d bd
       -0.014343153 -0.009686995 -0.0061041475 -0.04619202
000260 ac bf 98 b9 b7 d1 80 3b 01 fa 68 3c db ae 43 bd
       -0.00029134506 0.00393125 0.014219762 -0.047774177
000270 91 a0 b8 3d 64 6d c8 3c e2 9e 99 3c 2d 4f 96 3d
       0.090150006 0.024466224 0.018752519 0.0733932
000280 0b 1d d7 bd 09 98 68 3d 14 a0 c7 bd db f2 b8 bd
       -0.105035864 0.056785617 -0.09747329 -0.09030696
000290 93 49 20 ba 4b 59 13 bd 0b 0c 49 bd 69 5b 08 bd
       -0.0006114479 -0.03597383 -0.04908375 -0.0332903
0002a0 20 a6 43 bd 59 0d 2f 3d e7 b2 f9 3d 47 27 9c bd
       -0.04776585 0.04273734 0.12192326 -0.07624679
0002b0 ba 95 c3 3c 5b 90 38 bd cd aa 76 bd 39 e3 c9 3d
       0.023875106 -0.045059543 -0.060221482 0.098577924
0002c0 ce 46 62 bd c0 ca 93 3c b4 60 58 3d 5f 47 0a bd
       -0.055243306 0.018041015 0.0528266 -0.03375947
0002d0 61 61 ed 3c 3d de 3d 3c 28 ce cb bc 6f 0b 97 bc
       0.028977098 0.01158863 -0.024878576 -0.01843807
0002e0 42 50 af bc 6c 80 a0 3b bf 02 fe 3c ca d2 8a 3b
       -0.021400575 0.0048981216 0.031007169 0.004236554
0002f0 61 10 88 bc 79 71 46 3d 49 ab 96 3c c4 5e 65 3d
       -0.016609373 0.04844806 0.018392222 0.05599858
000300 22 1c 1a bd cd 8e 1e 3c 20 60 cb bc ac e2 ab 3d
       -0.037624486 0.009677601 -0.02482611 0.083928436
000310 a2 5f 3c 3c d2 f9 91 3d 27 e1 69 3d 6c 20 c6 bd
       0.01149741 0.071277276 0.057099488 -0.09674153
000320 78 52 d7 3d 00 e6 b5 bc d3 74 c2 bd f3 cb 8b bc
       0.105137765 -0.0222044 -0.09494939 -0.017065024
000330 4d 5b 61 bd b3 b8 1e bc 06 22 32 bd dd 6e d3 3c
       -0.05501871 -0.00968759 -0.04348948 0.0258097
000340 9a 3d f1 3c 46 88 74 3d 2f ea 86 bd f3 ba b7 bb
       0.02944832 0.059700273 -0.06587636 -0.005607003
000350 b1 39 70 bd 95 0d 00 bd 9e 7f 76 3d 17 ca 68 bd
       -0.05864877 -0.031262953 0.0601803 -0.056833353
000360 37 e7 a5 3a 7b 22 c5 3a eb 3b f4 3c 9b a1 e5 bc
       0.0012657408 0.0015040183 0.029813727 -0.028031161
000370 2d 8e 4d 3c bf b0 3b bc 4d fe 39 3c fa 5a 95 bc
       0.012546104 -0.011455714 0.011352134 -0.018231858
000380 f8 94 23 bd 22 d0 7a 3d e2 44 30 bd fe 8a ee 3b
       -0.03993699 0.061233647 -0.04303444 0.0072797528
000390 e9 16 88 3c cd 7b c0 bc 42 44 a6 3c da 1b d1 3c
       0.016612487 -0.023496533 0.02029622 0.025525976
0003a0 12 f8 dc 3b 29 16 6e 3d bd d4 27 3e ab 68 b4 bc
       0.0067434395 0.058126602 0.16389747 -0.022022566
0003b0 94 89 91 3d fb 6b 6d 3d 5e d5 d6 bd d6 9d fb 3d
       0.07106319 0.057964306 -0.10489915 0.12285964
0003c0 67 12 95 bc 18 d2 a5 bc a0 02 81 3c f7 8b 8e bc
       -0.018197251 -0.020241782 0.015748322 -0.017400725
0003d0 f4 83 cd bc a4 de 91 bd 8b f2 8b 3c a7 f0 91 bd
       -0.025087334 -0.071225435 0.017083427 -0.07125979
0003e0 81 ef 1f 3d 61 60 7d bd 0c 65 12 3b 44 e6 37 bd
       0.039046768 -0.061859492 0.002233806 -0.044897333
0003f0 f8 8d 54 3c 22 ff 35 3d c7 69 be bd 27 4b 96 3b
       0.012973301 0.044432767 -0.09297519 0.0045865956

fc.0.block.0.bias f4 [256]
000000 3f 42 42 bd b1 b4 a9 3c 05 da b1 bc 77 a9 52 3e
       -0.04742646 0.020716043 -0.021710405 0.20572458
000010 11 ff a2 3d ea 2d 1d 3d 81 02 3a 3e dd d3 c8 3d
       0.07958806 0.038373865 0.18165018 0.09806035
000020 2c d8 8f 3e f7 b2 8c 3c f8 be 30 be 73 14 0c 3d
       0.28094614 0.01717518 -0.17260349 0.03419919
000030 c1 12 b6 3e 32 cf 5c 3d 6a 62 79 bb 83 f9 bf bb
       0.35561183 0.053908534 -0.0038053044 -0.0058586015
000040 a4 fc cb bc 77 03 ca 3d 8c d8 b8 3d 29 64 98 bd
       -0.024900742 0.09863942 0.09025678 -0.07440979
000050 9d 08 8e 3d 98 c4 27 be 4b 25 33 3e 6f 03 5c 3d
       0.069352366 -0.16383588 0.17494695 0.053714212
000060 37 e1 87 3d f6 ac 34 3e 68 69 c2 bc 89 5b a4 3e
       0.06634753 0.17644104 -0.023731902 0.32101086
000070 69 42 b2 3d 94 43 0e bd e0 2e 7f 3d 30 79 f2 bd
       0.08704073 -0.034732416 0.062300563 -0.11839521
000080 85 80 19 3e 9a bf bf 3c 77 9a 58 3e a2 73 a6 3d
       0.14990433 0.023406792 0.21152674 0.08127524
000090 af 6d 44 3e b5 d8 ca bb 3f 6a 76 3d 35 c0 ef bd
       0.19182466 -0.0061903843 0.060159918 -0.117065825
0000a0 8b 55 fe 3d c0 fc 37 3d f0 e9 e0 bc 3e c6 e8 bd
       0.1241866 0.044918776 -0.0274553 -0.11365937
0000b0 9d f2 2c bd d8 5c a5 3d 3d 7e 0c 3d f8 3d 0d 3e
       -0.04222356 0.08074349 0.034300078 0.1379317
0000c0 47 0e 35 be 91 01 4f 3e 38 83 b7 bc 71 17 86 3e
       -0.17681228 0.20215441 -0.022401437 0.2618976
0000d0 35 da 44 3d 87 e9 3b 3d 4a d8 fd 3d 5b 57 90 bd
       0.04805966 0.045877006 0.123947695 -0.07047912
0000e0 95 ca 30 3e 49 41 8a 3e 25 57 d0 3d 0f 8a a1 3c
       0.17264779 0.27002934 0.101728715 0.019719152
0000f0 0f 80 f6 bd 35 3a af 3b 5d 2b 17 3e b9 21 21 bd
       -0.12036144 0.005347515 0.14762636 -0.0393388
000100 90 74 9d 3d 36 d8 37 3e 2e f5 dd 3d 0c 7e ad 3d
       0.07688248 0.17953572 0.1083778 0.08471307
000110 ea 4c 2a be d9 98 cc bc 36 f9 9b 3d 67 6b ef 3d
       -0.16630903 -0.024975227 0.076158926 0.11690407
000120 67 94 ba bd 96 7e 87 3d d7 47 88 3c 6a f2 a9 3d
       -0.09110337 0.06615941 0.016635818 0.0829819
000130 fa c3 1d 3c 28 05 6f 3e 11 c0 5a 3d de 09 09 3e
       0.009629244 0.2334181 0.053405825 0.1338267
000140 f6 cd 6e 3e 75 0f 10 3e eb b5 7c 3d 49 65 ab 3d
       0.23320755 0.14068396 0.061696928 0.08368928
000150 64 38 b5 bd c2 8b a5 3d 5f 55 4c 3e 3e 44 99 bd
       -0.08848646 0.08083297 0.19954441 -0.07483719
000160 e0 ae 88 3d 26 38 21 bd c2 19 04 3e 2b 06 c9 bc
       0.0667398 -0.039360188 0.12900451 -0.024539074
000170 99 53 8b 3d 36 38 6e 3e 3a 24 d2 bc 68 64 23 3e
       0.06803054 0.2326363 -0.02565204 0.1595627
000180 59 0a 1f be f5 a6 a5 3e e3 79 54 3e b3 72 c9 bd
       -0.15531291 0.3235394 0.20749621 -0.0983633
000190 a7 c4 a8 3d 5f 2e ff 3c 1f 07 28 bd bd 6a 26 bd
       0.082406335 0.031150041 -0.041022416 -0.040629137
0001a0 19 7c ec 3d 6e 03 9a 3e 86 58 43 3d 93 19 41 be
       0.11547107 0.30080742 0.047691844 -0.18857412
0001b0 70 61 20 3e b8 84 9b bd a0 fc 6c 3e fd 31 ec 3d
       0.1566217 -0.075936735 0.23143244 0.11532972
0001c0 8d e3 b7 bd c6 49 1a 3e c3 5d 6a 3d a6 9e c9 3e
       -0.08978949 0.15067205 0.057218324 0.39378852
0001d0 b8 ac 2d 3e 2e 44 87 3e 76 0f 04 3e 56 77 8b 3e
       0.16960418 0.26419204 0.12896523 0.27239484
0001e0 d2 91 7c 3e db 10 af 3e 8b 67 43 3d c0 42 d1 3e
       0.24665001 0.34192547 0.04770617 0.4087124
0001f0 84 a5 d6 3d 4a 95 a5 bd 0a 94 44 3e d0 f6 de 3d
       0.10480788 -0.08085115 0.19197097 0.108869195
000200 60 5a 89 3e 29 a0 8a 3d 02 05 27 3c a1 60 6c 3d
       0.26826763 0.067688294 0.010194065 0.05770934
000210 d2 7e 1b 3e a2 ee b9 3d 40 61 e9 bb a4 8f 0c 3e
       0.15185097 0.09078719 -0.007122189 0.1372667
000220 ec 59 10 3d 7f 7f b9 3e c0 5a 6b 3e c4 4f ef bc
       0.035242006 0.36230084 0.22983837 -0.02921284
000230 14 47 40 3e a7 d6 0b bd 13 c0 b1 3d 24 b6 65 3e
       0.18777114 -0.034140255 0.086792134 0.22432762
000240 b0 ae e1 3d f8 cc 58 3d 98 94 81 3e 08 8a b6 3d
       0.11019647 0.05292985 0.2530868 0.08913046
000250 56 19 88 3e 74 d9 46 3d af 97 b0 bd e4 96 94 3d
       0.2658183 0.048547223 -0.08622681 0.072553426
000260 4f cb 34 3e d5 84 25 3e 8f 82 11 be 6d b4 73 3e
       0.17655681 0.16163953 -0.1420996 0.23799296
000270 26 5b 34 3d 32 40 f1 3d f4 ee 56 3e 6b 7c 04 3c
       0.04403224 0.117798224 0.20989591 0.008086304
000280 0c 0e f9 bc a8 c5 74 bd ae 0d 4f bd 1b 59 5a 3e
       -0.030402206 -0.059758812 -0.050550155 0.21323054
000290 7f 34 3d 3e a6 53 ce 3d ed 1b 17 3c b4 5f 29 3e
       0.18477057 0.100745484 0.009222967 0.16540414
0002a0 5d 6b 16 bd ef 04 58 bd 20 5b 15 be c9 5c ab 3d
       -0.036723483 -0.05273908 -0.14585543 0.08367307
0002b0 8f d5 12 3e 52 87 c9 3e d4 59 ea bc fc 86 62 3e
       0.14339279 0.39361054 -0.028607287 0.22121805
0002c0 20 32 08 3d 11 3b 3d 3e 14 c6 5c 3e d9 9e 1e 3e
       0.033250928 0.18479563 0.21559936 0.15490283
0002d0 8e 08 a2 3c bc be 9b 3d 12 39 00 be ae f5 11 be
       0.01977947 0.07604739 -0.1252177 -0.14253876
0002e0 8d 8e 73 bd fd 96 1f 3e cd 15 54 3c a2 d4 fa 3d
       -0.05946212 0.15584941 0.012944651 0.12247588
0002f0 08 4e 65 bd fa 8d cc bd 99 3a 9f 3d 12 b2 58 3d
       -0.05598262 -0.099880174 0.077748485 0.052904196
000300 7f 0e 02 3c a5 87 ed 3d fe 31 20 3e 34 4c a1 3d
       0.007938026 0.11598138 0.1564407 0.07875863
000310 88 73 4e 3e 7e c3 9b bd 8a 16 35 3e 2e 7d 83 bd
       0.20161259 -0.076056466 0.17684379 -0.064203605
000320 3d 59 a4 3e 99 6c 05 3e 1f ea 41 bd 27 fd e5 bd
       0.32099333 0.13029708 -0.047342416 -0.112299256
000330 24 a7 1e be a2 6e 92 3e 5a 94 be bd ac 8c c7 3d
       -0.15493447 0.2860003 -0.093056396 0.09743628
000340 58 f8 6b 3e d8 f8 c4 3d bc f4 01 be 1e a8 02 be
       0.23043954 0.09617776 -0.12691015 -0.12759444
000350 e1 51 d5 3d 61 0f 1a 3e 92 e0 98 bd 2a 55 6b 3e
       0.10416008 0.15044929 -0.074647084 0.22981706
000360 b7 60 de 3c 3e ed 8b be f3 84 b3 bd 60 7c aa 3d
       0.027145727 -0.2732944 -0.087655924 0.08324504
000370 8d 49 bd 3e e2 64 da bd d0 06 04 bc 2e d5 99 be
       0.36970177 -0.10663773 -0.008058265 -0.30045456
000380 0e 6f 40 3e 0b e5 2a 3e d4 1a c4 bd ae 3d 2b 3e
       0.18792364 0.16688935 -0.095754296 0.16722748
000390 fd 58 96 bd 2a ce 9a bd 99 9c ee 3d 72 d5 87 3e
       -0.07341192 -0.07558854 0.116509624 0.26530033
0003a0 78 f4 ee 3d 71 39 95 bd be 85 9f 3d 97 37 3f be
       0.116677225 -0.07286347 0.07789181 -0.1867355
0003b0 24 a0 e1 3d 83 2e 26 3e 73 28 20 bb df c6 10 be
       0.110168725 0.1622868 -0.0024438172 -0.14138363
0003c0 e0 28 ae 3e d5 97 02 3e 49 40 70 3e 0a fa 47 bc
       0.3401556 0.12753232 0.23462023 -0.01220561
0003d0 89 81 f8 bc cd 7f 74 3d 86 63 1d bd 5c a8 c2 3c
       -0.030335205 0.059692193 -0.03842499 0.02376192
0003e0 80 b6 3a bb 65 01 6f 3c 2b e2 b9 bd 05 2e 16 3e
       -0.0028490126 0.014587735 -0.09076341 0.14665993
0003f0 f9 1e 02 3d d8 83 ac 3c 84 63 04 be 9f 0e 9c ba
       0.03176782 0.021058962 -0.12928587 -0.0011906213

fc.1.block.0.weight f4 [256, 256]
000000 2f b8 e1 3d a5 ad 8e bd 21 48 32 3d 68 6c 93 bc
       0.11021458 -0.06966714 0.04352582 -0.017996028
000010 9d 05 0b 3d 42 92 a1 bc 1a ad c5 3d 28 c8 b8 bb
       0.0339409 -0.019723061 0.09652157 -0.005639095
000020 5a 7e c8 bb c4 b6 ff 3d 8f 62 79 ba 5d 65 9d bd
       -0.006118578 0.12486032 -0.00095132826 -0.07685349
000030 d8 4a b9 3d 65 6d 55 3d a1 80 5d bc 78 50 bb bd
       0.090474784 0.05210628 -0.013519437 -0.091462076
000040 43 9d 86 3d 5a b9 0f 3d f8 d7 52 bd d4 13 7f bc
       0.06572964 0.035088874 -0.051475495 -0.015568692
000050 45 9b b9 3d 3d dd 60 bd 21 5c e5 bc 3f 62 98 3d
       0.090628184 -0.05489849 -0.027998032 0.07440614
000060 34 25 94 bd af 78 4f bd c4 f8 5c bb f1 b5 f1 3c
       -0.072336584 -0.050652202 -0.0033717612 0.029505702
000070 dc fb be 3a 6f e5 44 bd cb 33 72 3d c3 61 b1 3b
       0.001457091 -0.048070367 0.059131425 0.0054132654
000080 2f c0 be bd bf 28 96 3d 4e 26 eb 3c 2c ed 91 3c
       -0.09314 0.073319905 0.028704789 0.017813288
000090 4f 24 c5 bc 38 69 ff 3c 53 73 2d bc f9 10 1b 3d
       -0.024065165 0.031178102 -0.0105865775 0.037857983
0000a0 ee 5d 41 bb 91 b6 8e 3c ca 73 9f 3c 25 fb c0 3c
       -0.002950545 0.017421039 0.019464392 0.023557255
0000b0 93 11 6d be c9 f9 c4 3c a5 ea 37 3d 8f 03 51 bd
       -0.23151235 0.024044888 0.04490151 -0.051028784
0000c0 85 6e 54 3d 85 32 5f 3d cd 52 d4 3c 4c 0a 27 be
       0.051863212 0.05449154 0.025918389 -0.16312522
0000d0 5c 5d 04 bb 1f 49 e0 3c 6a 7a 3b bd 9c 4c ad 3d
       -0.0020197248 0.027378617 -0.04577104 0.08461878
0000e0 68 80 93 3d 84 38 a8 b7 dd d4 0e 3d 47 28 87 bd
       0.07202226 -2.0053478e-05 0.03487097 -0.06599479
0000f0 db 08 88 bd 40 bc 83 3c 42 e2 5f bd 88 4a 19 bd
       -0.06642314 0.016080976 -0.054659136 -0.037424594
000100 34 81 b2 3b 5f b1 10 be ec fe 04 bd f9 85 f1 3d
       0.005447531 -0.14130162 -0.032469675 0.117931314
000110 3c 6e 5e 3c 83 47 43 3d 52 fc 71 3d ea ab 28 3c
       0.013576087 0.04767562 0.059078522 0.010294894
000120 dd 6c fa 3c fb 87 f5 bd 8a 99 50 3d 1a 4f ec 3b
       0.030569488 -0.11988827 0.050927676 0.007211578
000130 78 81 a4 3c 3a b3 6e 3c a3 9d 1a bd 3e 54 84 b9
       0.020081267 0.014569098 -0.03774799 -0.00025239767
000140 4e 4d 3f bd 8a cd 58 3d 17 8a 0a bd 8f 94 7e 3d
       -0.046704583 0.052930392 -0.0338231 0.062153395
000150 27 1f 1f bd 05 1d 1d 3d c8 04 a4 bd ea b0 c4 3d
       -0.03884807 0.038357753 -0.080087245 0.09604056
000160 48 4e a0 bd fd 2b a2 3d 89 bb 35 3c 45 49 09 3d
       -0.07827431 0.07918546 0.011092075 0.03351714
000170 c9 f5 54 bd 6e 0a 16 3d 59 71 f4 3c 1b a0 e7 bd
       -0.05199221 0.03663104 0.029839205 -0.113098346
000180 21 b7 ac 3d ea 1d c6 3b a5 a8 55 3d 96 83 8d 3d
       0.084333666 0.0060460465 0.052162785 0.06909864
000190 1f 5f 2e bc be ac 8e 3d 4b 67 15 bd 7c 0c 59 bd
       -0.010642796 0.06966542 -0.03647546 -0.05299042
0001a0 d9 75 5d 3d b2 5b af 3d 5f 5e 3a 3d b8 c5 c0 bd
       0.054067466 0.08562411 0.045500156 -0.09412712
0001b0 d0 05 81 bd c2 77 94 bd 21 75 8b 3d 2a 4c 96 3d
       -0.06299937 -0.072494045 0.0680945 0.07338746
0001c0 ec 47 a3 bd 4c 51 bd 3d 0e 71 97 3c c6 eb 20 bc
       -0.079727024 0.09244022 0.018486526 -0.009821838
0001d0 ae 67 07 3e c8 b8 84 3d 1d d1 fd 3d 3b 46 83 3b
       0.13223144 0.06480557 0.12393401 0.004006175
0001e0 c5 89 8a 3d d2 ec 2b bd 18 15 d3 3d 94 7c 1c bd
       0.06764559 -0.041973896 0.10306758 -0.038204744
0001f0 4d 3f 8e 3d 7a 50 a0 bd 3d 88 60 3d 03 6c bb 3c
       0.069456674 -0.0782785 0.054817427 0.022878652
000200 94 94 37 3d 46 48 6f 3b d9 c8 28 3c 8f 1a be 3d
       0.04481943 0.0036511584 0.010301792 0.092824094
000210 41 e3 42 3d f0 d0 42 bd e1 39 f9 3d 45 87 03 be
       0.047580007 -0.04756254 0.12169243 -0.1284457
000220 17 05 c8 3d ca 17 d1 bd 9b 7c 6c 3c f3 15 f7 3c
       0.09766596 -0.102096155 0.014434005 0.030161833
000230 74 22 6b bd 39 60 bb 3c c4 e4 91 bd 29 2c 98 3d
       -0.057405904 0.022873031 -0.07123712 0.07430298
000240 cd ca 26 3d 32 0d be bd 46 62 15 3d 13 4f fe 3a
       0.04072075 -0.092798606 0.036470674 0.0019402228
000250 0b 2d 47 3d 43 b0 eb 3c d0 b1 a2 bd c9 2a a2 bc
       0.04862694 0.028770572 -0.07944071 -0.019795792
000260 38 c5 a8 3c 10 d9 93 bd 95 cd b2 3d 43 35 c2 3c
       0.020601854 -0.07219136 0.08730618 0.023707038
000270 15 93 88 3c d5 6c 52 bb 2a ba 77 3d c0 f7 5f bd
       0.016671697 -0.0032108326 0.060480274 -0.054679632
000280 92 23 02 bb 83 5e 95 3c 3e fe 08 3d 6d 63 fd bc
       -0.0019857627 0.018233543 0.03344559 -0.030931199
000290 65 4f 3f 3c 2a ae f0 3a 6c d3 dc bc 53 99 d2 3c
       0.011676644 0.0018362452 -0.026956283 0.025707876
0002a0 1a 1c 8b bd 4f 4e c9 bd d9 65 42 bc 24 08 d9 bc
       -0.06792469 -0.09829389 -0.011865103 -0.02649314
0002b0 7b 52 73 3c 73 c0 df 3d 11 81 95 bc f0 7f 8f bc
       0.014851208 0.10925379 -0.01825002 -0.01751706
0002c0 59 0f 05 bd 96 40 3c bd b8 82 27 bd 20 1b 80 bd
       -0.03248534 -0.04596003 -0.040896147 -0.06255174
0002d0 8c e4 a4 3c 81 1f 11 3d 20 a4 39 3d 46 36 6c bc
       0.02012851 0.035430435 0.045322537 -0.014417237
0002e0 d2 d1 9f bd 8b 34 42 bd ae c0 7f be 2d eb 91 3d
       -0.07803692 -0.04741339 -0.24975845 0.07124934
0002f0 95 a9 da 3c 11 fa e8 3c 88 b9 bf 3d e7 b2 19 bc
       0.026692191 0.028439553 0.09361559 -0.009381033
000300 94 a3 97 ba 9c 06 b6 3d 86 40 97 3d b7 5b 18 3e
       -0.0011569136 0.088879794 0.07385354 0.14878736
000310 b6 de c4 3d 17 2c cc 3d d5 f7 13 bd d3 58 36 3d
       0.09612791 0.09969347 -0.036125023 0.044518303
000320 e1 4b 90 3d f0 42 9c 3d c0 b0 15 bd 4a 7f f6 3d
       0.07045723 0.07629955 -0.036545515 0.12035997
000330 19 5d 42 3d af 39 c8 3d 79 f9 b3 bd 2c 27 78 bc
       0.047452066 0.09776627 -0.087878175 -0.015146058
000340 84 a6 01 bd 49 fc d8 3d ba ea bc 3c 42 9f 89 3b
       -0.031652942 0.105949946 0.023061145 0.004199893
000350 ba 89 44 bc e0 dd 42 3d 1e 4a c8 bd e7 23 a7 bd
       -0.011995727 0.047574878 -0.09779762 -0.08161145
000360 50 91 40 bd 46 f3 91 bd 05 cc 64 bd 44 63 0a 3d
       -0.04701358 -0.07126479 -0.05585863 0.033786073
000370 38 37 b2 3d c5 69 6b 3c 1c 3d 87 3d 12 1d db 3d
       0.087019384 0.014368479 0.066034526 0.10698904
000380 23 9e bc 3d 4f b0 a8 3c 23 51 d6 bd 6c 98 ac bd
       0.0920985 0.020591883 -0.10464694 -0.0842751
000390 28 f9 82 bd b0 84 95 3d 9e 91 5c 3d f9 3a 8d bd
       -0.06395179 0.07300699 0.05384981 -0.06896014
0003a0 a0 44 c8 3c 41 d3 8f bd cf 17 27 3c f4 1a 1c 3e
       0.024446785 -0.07022715 0.0101985475 0.15244657
0003b0 a1 12 79 3d 50 db aa 3d db 4a 12 3d a5 96 4e bd
       0.06080878 0.08342612 0.03571592 -0.050436635
0003c0 9d d4 bb bd de 4c 3d 3d 71 39 bc 3d 50 58 49 bd
       -0.09171412 0.046215884 0.091906436 -0.049156487
0003d0 4e d6 87 bd 25 dd ca bc 3b cd f8 bd 9d c4 26 bd
       -0.06632672 -0.024763653 -0.121485196 -0.04071485
0003e0 c3 8a 06 be 02 57 bd bb 6d 17 51 be b6 3b cf 3d
       -0.13138871 -0.0057781944 -0.20419092 0.10118811
0003f0 b0 eb 99 3d cf 9a 91 bd 26 85 f3 ba f0 b3 26 be
       0.07515657 -0.071096055 -0.001857911 -0.16279578

fc.1.block.0.bias f4 [256]
000000 bf d4 24 3e 8e 40 8f be 97 2f f6 bc b3 1d 80 3a
       0.16096781 -0.2797894 -0.03005199 0.0009774476
000010 a9 33 4f 3d ab 09 21 3e 61 e9 fd 3d 74 6f f8 3d
       0.050586376 0.15726344 0.12398029 0.12130633
000020 f0 c3 78 bc 5a e0 a1 bd 49 41 7e bd 6b 47 81 3e
       -0.015183434 -0.0790412 -0.06207398 0.252498
000030 ba cb 90 3d c3 13 93 3d b6 35 48 bc 41 78 5f 3e
       0.07070108 0.071815036 -0.012219837 0.21823217
000040 42 a7 e3 bd 0d e7 c2 bc e9 45 e2 3d 60 87 51 bd
       -0.11115886 -0.023791814 0.110484906 -0.051154494
000050 24 c0 2c 3d d8 ed ae bd 75 a8 09 3e da c5 89 3b
       0.042175427 -0.08541459 0.13443168 0.004204494
000060 6a 29 80 bd 9e 24 1e 3d f1 2d 25 bd d8 c6 4c bd
       -0.06257899 0.03860914 -0.040327016 -0.04999432
000070 b5 16 e6 3d 7b d9 96 3d 28 36 8e 3d 0a fa e7 3c
       0.112348 0.073657 0.06943923 0.02831747
000080 08 dc a3 bd 77 66 ce 3d 4d 71 75 3b 66 c6 93 3e
       -0.08000952 0.10078137 0.0037451566 0.28862303
000090 46 72 00 bd e7 8e 3c 3e e4 cf 14 bd 5a e8 f2 bd
       -0.03135898 0.18413888 -0.036331072 -0.11860724
0000a0 07 05 b4 3c 64 9a 25 3c 18 ab 19 3e 0f 92 f0 3d
       0.021975053 0.01010761 0.15006673 0.117466085
0000b0 7e 8b b5 bd b9 01 45 3e b0 e9 35 3e 82 d8 f3 3c
       -0.08864497 0.19238938 0.17764926 0.029766325
0000c0 24 49 62 3e 79 53 db bd 20 d8 24 bc 69 f3 96 3d
       0.22098213 -0.107092805 -0.010061294 0.073706456
0000d0 5c 47 03 bd 31 77 de bd bd a0 bd 3d c4 93 43 3d
       -0.032050475 -0.10862578 0.09259174 0.047748342
0000e0 20 90 14 3e 75 52 1e 3e f4 e6 99 3d 6a bf 8c bd
       0.14508104 0.15461142 0.07514754 -0.06872447
0000f0 e5 60 45 bb 9d e5 89 3e 4c 66 09 be a7 72 52 3e
       -0.0030117568 0.26932994 -0.1341793 0.20551549
000100 6d 42 2f bd f1 25 e8 3d 90 46 f6 bc d3 32 a2 bd
       -0.042787958 0.11335362 -0.030062944 -0.0791985
000110 65 f4 01 3e 8e 29 08 3d cf 1e 1b be e7 1b ea bd
       0.12690885 0.033242755 -0.15148471 -0.11431103
000120 7c bb 72 3e 94 0a 84 3e 15 e3 e7 bd 32 19 87 3d
       0.23704332 0.2578932 -0.11322609 0.065966025
000130 02 34 10 3e e9 79 51 3d 29 2e ab 3e fa 9c df 3c
       0.1408234 0.051141653 0.33433655 0.027296532
000140 54 2c ba 3d 7d f7 43 3e 37 94 8c 3c 9a c2 29 bd
       0.09090486 0.19137378 0.017160518 -0.041445352
000150 19 eb 1b 3e 39 30 22 bd 4c c8 eb 3d 59 d7 eb 3d
       0.15226401 -0.03959677 0.11512813 0.11515684
000160 8d e4 aa bd 5d d8 83 3e ed df 46 bc 3e 19 4b 3e
       -0.08344374 0.2575101 -0.012138349 0.19833848
000170 d3 a0 52 3e a2 08 9a 3d 96 54 a8 3e 74 dd 25 3d
       0.20569162 0.07521178 0.32877034 0.040494397
000180 0a 42 6f 3b d2 c1 97 bd b8 93 e1 bd 22 4e 91 3c
       0.0036507868 -0.07410015 -0.11014503 0.017737452
000190 b0 45 5a 3e 94 33 00 be 9d 89 95 3e 69 55 86 3d
       0.21315646 -0.12519675 0.29206553 0.065592594
0001a0 22 c4 6c bd b0 92 0c 3e 12 bf 86 3e 1d 94 63 3e
       -0.057804234 0.13727832 0.2631765 0.2222447
0001b0 d0 c9 48 3d 22 f7 33 3e 4d ca 8d 3c 8a 2f 94 3e
       0.04902059 0.17574742 0.017308379 0.2894252
0001c0 2c ec 13 3d 9d fb 30 3d f4 42 8c 3d 38 c7 0e 3e
       0.036113903 0.043208707 0.06848708 0.13943183
0001d0 14 f3 f9 3d b1 8a fc bd 19 d4 4a bc 38 c2 ee 3d
       0.122045666 -0.12331141 -0.01237967 0.11658138
0001e0 56 2e 8e bd 4c c2 61 3e 52 99 33 be b3 c1 e0 3d
       -0.06942432 0.22046775 -0.17538956 0.10974445
0001f0 48 9b 90 3e 83 50 7d 3d fe 41 dd bd 2d 7f 09 3d
       0.2824347 0.06184436 -0.10803603 0.03356855
000200 37 1b 89 bd 09 b4 85 3e 97 ab ab 3d f2 a9 a7 3d
       -0.06694644 0.26113918 0.083823375 0.08186711
000210 e1 e2 1d be 9e 11 f7 3d 6f 78 52 3b ac e5 8f bc
       -0.15418579 0.12063907 0.003211524 -0.01756557
000220 0c f8 8a be 73 48 f9 bc d9 d1 54 bd 7d 0b c0 3e
       -0.2714237 -0.030430054 -0.05195794 0.37508765
000230 ce 48 f6 bc c7 37 34 3e 91 cd 8c bd f0 48 24 3e
       -0.030064013 0.17599402 -0.06875146 0.16043448
000240 d8 7a 42 3d d4 9d 0b bc 3d e9 71 bd 5e e2 9a 3e
       0.047480434 -0.008521516 -0.059060324 0.3025083
000250 2e ec 91 3e 18 fc b8 3d b3 cd 6b 3d 87 f7 92 3d
       0.28500503 0.09032458 0.057569217 0.07176118
000260 cd ad 41 3d 0c 61 b3 3c fc 0c 03 3e 9f 40 d6 3d
       0.04728489 0.021896861 0.12797922 0.10461544
000270 89 ff 7f bc 31 62 d3 3d c6 3d 1a be e0 82 14 bd
       -0.015624889 0.10321463 -0.15062627 -0.036257625
000280 bd 7a 33 3e 11 32 58 3e aa 56 30 be 25 db 55 3e
       0.1752729 0.21112849 -0.1722056 0.20884378
000290 7a 48 40 3e 2e 23 72 3e 95 5e 6b bd fd 27 16 be
       0.18777648 0.23646232 -0.057463247 -0.14663692
0002a0 6b f0 c4 bc 64 eb 23 3b bc 9a 6c 3e e1 9a ba 3d
       -0.024040421 0.002501213 0.23105901 0.09111572
0002b0 c5 20 8e bd 6a a9 d8 3d 4f 88 15 3e 24 53 32 3c
       -0.06939844 0.10579188 0.14602779 0.01088408
0002c0 14 5d 75 3d a2 69 af 3c 51 90 ae bd f9 0e 87 3d
       0.05990322 0.021412674 -0.0852362 0.06594653
0002d0 c4 d6 ad bc 71 46 b4 3d 10 df ea bd a2 ca f2 3d
       -0.021220572 0.08802498 -0.11468327 0.118550554
0002e0 62 3b c0 3d 90 8a 19 3d f6 9d 31 3d 69 e9 a4 3b
       0.093863264 0.03748566 0.043363534 0.0050327075
0002f0 7b 6d a6 bd c2 44 47 3e 8e 92 9e 3b 12 a6 f0 bd
       -0.081263505 0.19459823 0.004839248 -0.117504254
000300 31 c1 15 be 31 b5 e6 bd 2e 8a a8 3d 5a 7d 79 3d
       -0.14624478 -0.11265028 0.08229481 0.06091056
000310 0e 64 69 bb a1 a5 68 3d 1e 73 bd 3d 7e 2e 93 3c
       -0.0035612616 0.05679858 0.092504725 0.017966505
000320 1d 20 86 3e aa 90 07 3e a4 fe 08 bc 86 e8 aa bd
       0.26196375 0.13238779 -0.008361492 -0.083451316
000330 cf bc 35 be 61 83 7c be 75 6d d3 3d 33 86 32 3e
       -0.17747806 -0.24659492 0.10323612 0.17434005
000340 e8 cc 83 bc 85 22 b6 3d 6f 1d 1c 3e 7b ee 65 3e
       -0.016088918 0.08893303 0.15245603 0.22454254
000350 ce 32 30 be 66 18 62 3e 70 c2 60 3d 71 ee 03 3c
       -0.1720688 0.2207962 0.05487293 0.008052454
000360 7e 4f 6c be 23 f1 5a 3d 92 9f 7c be 9e d8 83 be
       -0.23077199 0.053452622 -0.24670246 -0.25751203
000370 86 51 0d 3e 45 6c 35 3e 32 ee 1d 3d f4 d6 3c be
       0.1380063 0.17717083 0.03855724 -0.18441373
000380 7f 64 cb 3d 13 aa 08 be 75 1a 01 bd ae f2 1d be
       0.099312775 -0.13346128 -0.031519372 -0.15424606
000390 c9 ab c9 3c bd e7 bd 3d 37 85 19 bd c9 f8 c5 bd
       0.024618046 0.09272716 -0.03748056 -0.09666593
0003a0 8d b3 1f bd af 19 be bd 9f 65 03 be 89 45 b7 bd
       -0.038989592 -0.092822425 -0.12831734 -0.0894881
0003b0 90 35 69 3d df 99 79 3e 5a 82 44 3e de 4d d9 bd
       0.056935847 0.24375103 0.1919035 -0.10610555
0003c0 84 d5 4c 3e 11 b2 4d 3e 26 9c c2 3d ed 78 a9 bc
       0.20003325 0.20087458 0.09502439 -0.020687545
0003d0 63 81 c2 3d 1a 84 34 3d 1e a0 34 3e aa 74 f0 bd
       0.09497335 0.044071294 0.17639205 -0.11741002
0003e0 91 8c ba bd 1e be df 3c 48 96 a3 3e 0b 18 13 be
       -0.09108842 0.027312335 0.31950593 -0.1436464
0003f0 b7 db e3 3b 3b d0 60 3e 17 ca 32 bd 03 5e 55 be
       0.0069536823 0.21954434 -0.04364976 -0.20836644

fc.2.weight f4 [41, 256]
000000 cc bc 9e 3d 8e 6d f6 bd 6b 76 da 3c 29 11 71 bd
       0.07750854 -0.12032615 0.026667794 -0.058854256
000010 47 9e 9f 3d 6d 29 98 3d 7c 22 c7 3d 12 5c bc bb
       0.07793861 0.07429776 0.09723374 -0.0057482803
000020 b4 7d 2f bd e4 97 cd bc e8 71 41 3c 75 f4 44 3d
       -0.04284449 -0.025096841 0.0118069425 0.048084695
000030 e9 33 a3 bc 81 83 90 3d 14 82 fb bd b7 5f ce 3d
       -0.019922214 0.070563324 -0.1228067 0.1007685
000040 8d c6 9f bd 23 3d 9b 3d b1 ca 31 3d 86 a4 f9 bc
       -0.078015424 0.0758002 0.043406192 -0.030473959
000050 1a c2 7b be 07 44 3d 3d e7 be 51 bd bf ca 0d be
       -0.24585763 0.046207454 -0.05120745 -0.13846873
000060 84 24 22 bd 4a 3b bb 3d fc a0 1e be f8 07 a7 3b
       -0.039585605 0.09142168 -0.15491098 0.0050973855
000070 ea cf 8c 3d 00 35 2e 3d 27 45 a5 3d f2 b9 d6 3a
       0.06875594 0.042531013 0.080698304 0.001638232
000080 ab aa 09 3d 47 24 95 3d fa 41 d1 bb 96 85 d5 3c
       0.033610027 0.0728231 -0.006386039 0.026064675
000090 92 89 8c 3d 5c 00 04 bd 21 f0 a4 3c 03 0f 60 bd
       0.06862177 -0.032226905 0.020134034 -0.054701816
0000a0 0a 93 0c be fa a5 2c bc 27 eb aa 3d 84 a0 83 3d
       -0.13727966 -0.010537619 0.08345633 0.064271
0000b0 a3 05 83 bc 6d 38 8a 3d 5b ae 3b 3d b3 52 ed bd
       -0.015993899 0.067490436 0.045820575 -0.11588039
0000c0 85 aa b6 3d 09 ed b9 bd 2b 5e 50 3d 5f f6 21 3d
       0.08919243 -0.09078414 0.050871056 0.0395416
0000d0 e9 f7 8d bd 91 c7 18 bd 29 4f 8c 3d e0 54 26 3d
       -0.06932051 -0.037299696 0.06851036 0.040608287
0000e0 9e 82 55 3d be d7 6b bc d3 e6 45 3d 30 62 b5 bb
       0.05212652 -0.014394699 0.048315834 -0.0055353865
0000f0 35 c6 30 bd 8d 2f df 3d 4e c4 8e bd 63 b3 ac 3d
       -0.043157775 0.108977415 -0.06971036 0.08432653
000100 6c 22 0d be 8a ac d5 bd 33 18 f5 bc b3 4c bf bd
       -0.13782662 -0.104333 -0.029918766 -0.09340801
000110 fb b5 5e bd e1 cd 92 bd d2 2a 3b bd bf 36 d3 bd
       -0.05437277 -0.071681745 -0.045695134 -0.10313176
000120 ac a6 bf 3d 74 7d cc 3c c0 a0 bf 3d ec 96 e8 3c
       0.09357962 0.024962164 0.093568325 0.028392278
000130 3e 06 52 bb 2f ae f7 3c e1 68 d2 3d 81 70 24 3c
       -0.0032047178 0.030234424 0.1027391 0.010036589
000140 e1 73 d9 3c fc 48 aa bd 68 d7 c9 bd 4b ee b5 bd
       0.026544513 -0.08314702 -0.098555386 -0.088833414
000150 83 2e ce 3d 77 a0 19 bd 14 cc 15 3c 00 4a 13 3e
       0.10067465 -0.037506547 0.009142894 0.14383698
000160 8d ac e1 bd be 12 04 3d d9 85 5e bd 19 8d be 3d
       -0.110192396 0.032244436 -0.054326866 0.09304256
000170 a8 79 91 ba 91 6b a2 3d 1e c1 18 3e 9e 02 11 3d
       -0.0011098878 0.07930673 0.14917418 0.035402887
000180 84 b1 d0 b9 a3 5f 11 be 06 b4 3a be a8 bf 9a bd
       -0.0003980511 -0.14196639 -0.18232736 -0.07556087
000190 8d 08 0b be 42 58 be 3c af 78 2d 3e 83 37 4f bd
       -0.1357748 0.023235444 0.16940568 -0.05059005
0001a0 91 0f 28 bd a5 c1 88 3d 0b bc c2 3d 60 76 e2 3d
       -0.04103047 0.0667756 0.095085226 0.110577345
0001b0 dd 80 81 bd d1 3f 2a 3e 02 99 19 bd 8a 3e bb 3d
       -0.06323407 0.16625907 -0.037499435 0.09142788
0001c0 73 ca 2c bc f7 b0 70 bd 0c f9 15 be 06 5e 48 3d
       -0.0105463145 -0.058762517 -0.14645785 0.048917793
0001d0 27 69 ca 3d c2 0d 82 bd 77 32 fa 3b c8 3b c1 bd
       0.098833375 -0.0635028 0.0076354104 -0.094352305
0001e0 07 29 1c be 74 63 86 3d 96 88 85 bd 0c 5a c0 3d
       -0.15250026 0.06561938 -0.06520192 0.09392175
0001f0 e2 ac 9b 3d 15 a7 94 3d 19 19 76 bb 67 84 67 3c
       0.07601334 0.07258431 -0.003755158 0.014130688
000200 f3 fd a5 3d 93 4c cf 3d 67 59 93 bd 18 b4 a2 bd
       0.081050776 0.10122027 -0.071947865 -0.079445064
000210 63 cd ae 3c 0e 14 84 3d 70 b9 2b be 64 6c 99 3d
       0.02133817 0.06449138 -0.16769958 0.07491377
000220 26 67 cb bd 67 74 ac bd 66 d1 f3 bd ee e9 bf 3d
       -0.099317834 -0.084206395 -0.11905174 0.093707904
000230 55 92 42 bd 33 a8 51 3d cc b3 6d bc 6a 3f 17 3d
       -0.047502834 0.051185798 -0.014508199 0.03692571
000240 53 49 14 ba 7b 66 18 3d 22 9e 8f 3c e1 a3 c5 3b
       -0.0005656678 0.037207108 0.017531458 0.006031499
000250 6e 72 c2 3d 03 36 e5 3d e7 39 ce 3c ad 96 08 be
       0.09494482 0.111919425 0.025174094 -0.13338728
000260 0a be 1b bd e6 a8 92 3d 12 d6 bf 3d e0 7a 27 3d
       -0.038023032 0.07161121 0.093670025 0.040888667
000270 24 60 0c 3d d1 ad 37 bd 7d de 02 be 2a 2e 63 38
       0.034271374 -0.0448435 -0.12780185 5.416401e-05
000280 f7 a2 67 3d a5 2c c3 3d f1 24 10 be 89 55 8e 3d
       0.0565519 0.0953 -0.14076592 0.06949908
000290 e0 51 3d 3d 15 90 08 3e c1 70 0a bd 0e 89 28 bd
       0.04622066 0.13336213 -0.033798937 -0.04114633
0002a0 b1 de de bd cd 83 c8 bd b8 90 a4 3d c1 bc 2a 3d
       -0.10882319 -0.09790764 0.080354154 0.041683916
0002b0 32 c4 19 bd 64 69 21 3d c2 8e 04 be 38 a8 04 be
       -0.037540622 0.03940715 -0.12945083 -0.12954795
0002c0 3a 33 fa 3d 55 84 7f 3c 3f d7 bd bd 2d 58 0e 3d
       0.12216802 0.015595515 -0.092695706 0.03475206
0002d0 89 31 81 3d 24 02 8f bd 10 79 d1 bd d0 a2 65 3c
       0.06308276 -0.0698283 -0.10228169 0.014015868
0002e0 c1 a7 8e 3d b9 4a 8b 3d 24 e3 89 bd a8 fb 64 3d
       0.0696559 0.068013616 -0.06732777 0.05590406
0002f0 a7 c3 98 3d 37 ba 97 3c 3e 86 44 3d 54 fb c9 bd
       0.07459193 0.018521411 0.047979586 -0.0986239
000300 43 c2 f3 bd 3f e4 42 bd 1a 30 49 3d ea c8 96 bc
       -0.11902287 -0.047580954 0.04911814 -0.01840635
000310 e8 9b 89 3b e3 51 4a 3d 7d c8 4a bd 8e d0 3e 3d
       0.0041994937 0.0493945 -0.049507607 0.046585612
000320 a7 21 a6 3c 6a 71 1b bd fc bd 93 bd 8a 52 d1 bc
       0.020279719 -0.037949957 -0.07213971 -0.025552053
000330 ff ca 06 bc 1b 36 09 be 94 dc a2 3d 30 05 c0 3d
       -0.008227109 -0.13399546 0.07952228 0.093759894
000340 f0 8c 24 bc 51 ba 7c 3c 5e 0b 1c 3d 44 11 41 bd
       -0.010043368 0.015425281 0.038096778 -0.047135606
000350 05 0e f5 bd fd 2c 76 3d 63 17 c9 bd 79 9b 1d bd
       -0.11965565 0.060101498 -0.09818914 -0.03847835
000360 78 26 2c be 0a a7 89 3c 33 52 21 be 88 09 05 be
       -0.1681155 0.016803283 -0.15754013 -0.12991917
000370 be 46 29 3c f9 39 79 3e 59 cb 4b bd 5d a5 12 be
       0.010331808 0.24338521 -0.049754474 -0.14320894
000380 00 90 d1 bd 8e 8d 1a be 09 6a 41 3d cf 7e 42 bd
       -0.10232544 -0.15093061 0.047220264 -0.047484215
000390 9c 3d 13 bb 5e 4d 7d 3c be 6b f3 3c 8c f9 93 bd
       -0.0022467142 0.01546034 0.029714461 -0.07225332
0003a0 74 b4 8e bd ba 04 78 bd 7b 56 84 bd 79 37 d0 bd
       -0.069680125 -0.060551383 -0.06461807 -0.101668306
0003b0 ed 6b 6b 3d 55 50 74 3d bf d9 c4 3c c1 00 48 bd
       0.057475973 0.059646923 0.02402961 -0.048828844
0003c0 33 fe bc 3d 02 32 c2 3c 69 8f 76 bd 0a 22 02 3d
       0.09228172 0.023705486 -0.06019536 0.031770743
0003d0 c0 06 44 3d 1e e0 a7 bd 9c a7 61 3d 3a 66 91 bd
       0.047858 -0.08197044 0.055091485 -0.07099576
0003e0 15 90 9e 3c 38 f1 8c bd 9b 95 fe 3d 53 72 64 be
       0.019355813 -0.06881946 0.12430879 -0.22309236
0003f0 1a 6a 03 be 83 7f c9 3d 5f 04 ce 3c 56 d6 c7 bd
       -0.12833443 0.09838774 0.025148569 -0.09757678

fc.2.bias f4 [41]
000000 fa f4 72 3e 74 b0 69 be e3 bd 21 be e5 f5 08 3a
       0.23726264 -0.22821218 -0.15795092 0.00052246294
000010 00 21 67 3d 8e 4f 25 3e 16 af 0b 3b d6 f2 89 bd
       0.056427956 0.16143629 0.0021314076 -0.067357704
000020 d6 e1 b7 bd dc 17 b5 bd 14 2e 0f bc 66 e1 1e be
       -0.08978622 -0.088424414 -0.008739013 -0.1551567
000030 cc 81 6b bd cf a6 91 3d d0 1c 89 bd 25 81 38 be
       -0.05749683 0.07111894 -0.06694949 -0.18018015
000040 6b e6 c1 bd ac d3 ed bd 3e 55 ba bd 24 5d 53 bd
       -0.09467777 -0.11612639 -0.0909829 -0.051602498
000050 29 ff 53 3c 0d 5e c3 bd 0f 4f 17 be f9 54 62 3e
       0.012939253 -0.09539423 -0.14776252 0.22102727
000060 3d ab 55 3e 35 87 0a 3b 91 f8 f6 bd 53 fe 96 3d
       0.20866103 0.0021137719 -0.12059129 0.07372727
000070 8b eb 80 bd a0 05 8f 3d f6 7a cc bb 96 35 72 3d
       -0.06294926 0.06983495 -0.006240244 0.059133135
000080 87 9a e4 3d 5e 5b f2 bb 4e 03 be bd d1 40 36 bd
       0.11162286 -0.0073961457 -0.09277974 -0.044495407
000090 f1 8c 38 3d fb 4f 72 bd f7 3a 01 3e 64 06 82 3b
       0.045056287 -0.059158307 0.1262015 0.003968047
0000a0 e6 42 c5 bc
       -0.024079751
