udemyCourses/mnistProject/mnist/results/model.pth (torch, 89871 bytes, 8 tensors)

conv1.weight f4 [10, 1, 5, 5]
-0.10620915 0.25174555 0.13038926 0.24240555 0.2009594 0.05979294 0.16893475 0.14202811
0.1771435 0.0496208 -0.07098896 -0.05880534 -0.009158359 -0.06009175 0.14718263 -0.05128552
-0.19003765 -0.2709836 -0.20024 -0.18651016 -0.14832443 -0.11213541 -0.06765655 -0.071314655
-0.2626411 0.27743885 0.3177482 0.38421595 0.23849712 -0.12170457 -0.13605203 0.018554833
0.34984297 0.21819745 0.30051786 -0.21809994 0.068754554 -0.08022959 0.24879058 0.19169345
-0.327038 -0.08840469 -0.21815668 -0.06571143 0.01415565 -0.24464357 -0.3671938 -0.26509756
-0.090185046 -0.0632528 0.3353629 0.380741 0.1972929 -0.043328878 0.16351317 0.06980376
-0.028250137 0.28678122 0.23873067 0.23754773 -0.17428993 -0.016705561 0.09939211 0.11993064
-0.14684364 -0.15835874 0.1566167 0.04157126 0.13505597 -0.048749406 0.027334236 0.0767854
0.11843626 0.07889338 -0.2757625 0.13984127 -0.13409698 -0.18153164 -0.05067812 -0.07393077
0.17907536 -0.083739005 -0.20959002 0.10429384 -0.04038293 0.18858911 0.13903871 -0.13181789
0.08341278 0.10887892 -0.059978034 0.005310848 0.15692209 0.14629196 0.004982675 0.044942856
0.3072326 0.056582056 0.2207709 0.18555273 -0.14160709 -0.15882888 0.23842454 0.1287124
0.219357 0.110894874 0.19510584 0.35743114 0.38504943 -0.05233594 0.0975555 0.21024084
0.21649855 0.20954137 -0.094745465 -0.15328893 -0.17718874 -0.01827488 0.2511782 -0.048195582
-0.034084912 -0.24327515 -0.24730465 -0.015611862 0.1976635 0.2839614 0.011087363 0.1673143
0.23814829 0.116051555 0.19924209 0.25935823 0.21873201 0.08380256 -0.16194275 -0.18786137
-0.11172435 -0.012381898 -0.08282605 0.11926375 0.019357318 -0.083884336 0.121491365 0.17528066
0.2895938 0.115940385 -0.05514906 0.2575773 0.06908751 0.0964172 -0.32030302 -0.28220028
-0.17702912 0.048786346 0.33639622 -0.3058762 -0.26877713 0.09622309 0.27480623 0.34964445
-0.3333282 -0.04282157 0.067572676 0.29368296 0.09879739 -0.2639137 -0.04851363 0.29872027
0.34364146 0.21940733 0.15885483 0.2636042 0.27240652 0.14221017 -0.09818942 0.11587104
-0.09807761 -0.074714646 -0.26840904 -0.16977754 -0.12537058 0.09984758 -0.28374627 -0.3073914
-0.17353608 -0.065641716 0.05603105 -0.078431524 -0.11160846 0.018998627 0.22421335 -0.056217883
0.27279502 0.34322035 0.37442213 -0.036768574 0.21949665 0.0894385 0.37297258 0.031124778
0.24448544 0.1449774 0.007893431 -0.13511774 -0.14067306 0.25478032 0.20742518 0.05702373
-0.3688874 -0.051959876 0.35044673 0.350773 0.12922338 -0.31342483 -0.22824456 0.34214774
0.02357423 0.2283688 -0.23837301 -0.23256181 0.21741158 -0.0057004658 -0.0013180352 0.100270495
0.1123511 0.16749391 0.010796601 -0.03518805 0.32938778 0.07761013 -0.13587733 0.06053277
-0.10392132 0.14847068 0.19416748 -0.2487814 -0.2613767 -0.12560777 -0.05013812 -0.04721617
-0.16388212 -0.13784279 -0.3209136 -0.28308362 -0.25518164 0.18319291 0.14637467 -0.08505822
-0.06738925 -0.04090224
00000000: 2f84 d9bd cbe4 803e c384 053e 2939 783e
00000010: 4dc8 4d3e 71e9 743d 3bfd 2c3e d16f 113e
00000020: 1b65 353e 2e3f 4b3d a962 91bd dedd 70bd
00000030: f10c 16bc c422 76bd 0bb7 163e c410 52bd
00000040: 3b99 42be 5dbe 8abe b70b 4dbe 85fc 3ebe
00000050: 5ce2 17be 40a7 e5bd 848f 8abd 6b0d 92bd
00000060: e578 86be 770c 8e3e e4af a23e f4b7 c43e
00000070: 9738 743e 3f40 f9bd 3951 0bbe 4e00 983c
00000080: 9e1e b33e 276f 5f3e 7add 993e 9755 5fbe
00000090: 30cf 8c3d 694f a4bd f5c2 7e3e 4a4b 443e
000000a0: 8671 a7be 850d b5bd 7764 5fbe b793 86bd
000000b0: 19ed 673c d883 7abe d300 bcbe deba 87be
000000c0: f0b2 b8bd af8a 81bd b0b4 ab3e 7cf0 c23e
000000d0: 2607 4a3e 9f79 31bd ff6f 273e 46f5 8e3d
000000e0: d56c e7bc fdd4 923e d075 743e b63f 733e
000000f0: 0f79 32be 1ada 88bc 178e cb3d 329e f53d
00000100: 2e5e 16be cb28 22be 2160 203e a046 2a3d
00000110: 1d4c 0a3e 75ad 47bd 0cec df3c aa41 9d3d
00000120: b68e f23d da92 a13d be30 8dbe 8d32 0f3e
00000130: b850 09be 6ee3 39be dc93 4fbd 0469 97bd
00000140: 885f 373e 5b7f abbd c49e 56be 0298 d53d
00000150: 9268 25bd 811d 413e 2a60 0e3e 45fb 06be
00000160: 52d4 aa3d e9fb de3d 87ab 75bd 9f06 ae3b
00000170: 2fb0 203e 8fcd 153e b545 a33b 0016 383d
00000180: 974d 9d3e 96c2 673d c411 623e 8901 3e3e
00000190: 7301 11be 0aa4 22be 9025 743e 2fcd 033e
000001a0: 1f9f 603e da1c e33d d3c9 473e 3701 b73e
000001b0: 3325 c53e 365e 56bd 2ecb c73d 6049 573e
000001c0: ccb1 5d3e 0392 563e e909 c2bd c6f7 1cbe
000001d0: f770 35be 33b5 95bc 6e9a 803e bb68 45bd
000001e0: 9f9c 0bbd 1f1d 79be 6e3d 7dbe e5c8 7fbc
000001f0: 4d68 4a3e 6363 913e c5a7 353c 7154 2b3e
00000200: 25dd 733e 70ac ed3d 1e06 4c3e 9aca 843e
00000210: 49fb 5f3e ada0 ab3d 52d4 25be bb5e 40be
00000220: bccf e4bd 72dd 4abc b4a0 a9bd 8e40 f43d
00000230: 3d93 9e3c 8dcb abbd 77d0 f83d c67c 333e
00000240: a345 943e 2772 ed3d fbe3 61bd 2ce1 833e
00000250: c17d 8d3d 6276 c53d c2fe a3be 8e7c 90be
00000260: 1f47 35be 31d4 473d 203c ac3e ce9b 9cbe
00000270: 289d 89be 9d10 c53d 67b3 8c3e 9904 b33e
00000280: fea9 aabe ac65 2fbd 8b63 8a3d 9d5d 963e
00000290: 4956 ca3d b21f 87be 3ab6 46bd ddf1 983e
000002a0: c6f1 af3e 51ac 603e d7aa 223e 21f7 863e
000002b0: de78 8b3e 8b9f 113e 8917 c9bd cc4d ed3d
000002c0: eadc c8bd fe03 99bd e96c 89be 2ada 2dbe
000002d0: 2561 00be e37c cc3d 3147 91be 6862 9dbe
000002e0: 71b3 31be 2a6f 86bd d080 653d b5a0 a0bd
000002f0: fa92 e4bd 02a3 9b3c 2f98 653e b944 66bd
00000300: caab 8b3e 94ba af3e 42b4 bf3e a59a 16bd
00000310: bbc3 603e 882b b73d 43f6 be3e 64f9 fe3c
00000320: 645a 7a3e f574 143e 7353 013c 4e5c 0abe
00000330: 990c 10be 9172 823e 4467 543e b791 693d
00000340: cfde bcbe e1d3 54bd c16d b33e 8598 b33e
00000350: 2253 043e 3879 a0be f1b8 69be fd2d af3e
00000360: be1e c13c 83d9 693e 0e18 74be af24 6ebe
00000370: 24a1 5e3e f9ca babb ecc1 acba 9e5a cd3d
00000380: 5518 e63d 8683 2b3e 3ae4 303c 5821 10bd
00000390: 84a5 a83e 0ff2 9e3d 6d23 0bbe 36f1 773d
000003a0: b3d4 d4bd b308 183e d7d3 463e 8dc0 7ebe
000003b0: 2bd3 85be 539f 00be a15d 4dbd be65 41bd
000003c0: b7d0 27be a926 0dbe ca4e a4be 56f0 90be
000003d0: 2ba7 82be ec96 3b3e 3ee3 153e 0133 aebd
000003e0: 6003 8abd 1b89 27bd

conv1.bias f4 [10]
0.022600943 -0.016757116 0.19523467 0.14095736 0.118786596 0.024138363 0.14925103 0.1739151
-0.098877646 0.14685903
00000000: 9d25 b93c 3846 89bc 99eb 473e 2057 103e
00000010: 6346 f33d d1bd c53c 43d5 183e cd16 323e
00000020: 5d80 cabd 3762 163e

conv2.weight f4 [20, 10, 5, 5]
0.018926099 -0.04110206 0.047034528 -0.019852433 0.053412527 -0.03767894 -0.0024278078 -0.007309787
-0.0154941445 0.009613316 -0.02711723 -0.0636961 -0.09539366 -0.01343345 -0.034198213 -0.026136441
-0.047478326 -0.01675833 0.0013495662 -0.030563587 -0.05658575 -0.06447102 -0.079860374 0.016142633
-0.046979684 0.05373229 0.008211355 -0.015423294 0.09719243 0.08218098 0.015657665 -0.08131118
-0.098469414 -0.06455995 -0.09820937 -0.05544223 -0.07332796 -0.09486825 -0.057369947 -0.06931305
-0.0827542 -0.10576496 -0.10665863 -0.025949107 -0.10307579 -0.05008426 -0.092138365 -0.052342955
-0.05144475 -0.059865873 0.09274368 -0.041146725 -0.014021224 0.05542784 0.07130973 0.04732231
-0.05786299 -0.047940098 -0.017925756 0.004907066 0.034168072 -0.07720155 -0.027691353 0.0746504
-0.020298162 -0.03364435 -0.0023382064 0.019522598 0.06791976 -0.111063235 -0.033567358 -0.08383505
-0.06728772 -0.051338397 -0.03896864 0.0068592983 -0.054394513 -0.08071318 -0.07098107 0.07367305
-0.019522835 -0.032545134 -0.020666104 -0.007339358 -0.047077935 -0.057484575 0.028811555 0.023260444
-0.009065627 -0.094932444 0.0043058335 0.029009152 0.060228266 0.0022990464 -0.0057849656 -0.00772981
-0.05813417 -0.09603565 -0.004586038 -0.01242865 0.040678885 -0.024057835 -0.04715739 -0.033476707
-0.013681671 -0.021622922 -0.12220822 -0.05227552 -0.0711309 -0.027350497 0.0039833407 -0.07500079
-0.05045866 0.074219376 0.06408982 -0.05401893 -0.081949204 -0.04700892 0.10265099 -0.08939011
-0.1288892 -0.024948081 0.030442178 0.046885487 -0.08981508 -0.009351568 -0.014795951 0.04241004
0.028380483 0.010187029 0.027328888 -0.059351142 -0.0054064402 -0.024213487 0.034758538 -0.017282784
-0.11208966 -0.0004770317 -0.02100924 -0.08373482 -0.06985531 -0.13135897 -0.072742105 -0.036117822
-0.018505676 -0.06305928 -0.08116152 0.014930299 0.033364702 -0.098034106 0.038126886 0.039572693
-0.054561794 -0.012376262 -0.058729883 0.02942317 -0.067582265 0.061886087 0.096895486 0.18657006
0.0360452 0.042356096 0.043971926 0.11736321 0.09205486 -0.025809914 -0.0031290066 0.067785405
0.09291441 -0.0071750903 -0.00068625296 -0.032535344 0.0849294 0.01120968 -0.106362775 0.048262816
-0.08516796 0.02181056 -0.08695762 0.029368158 0.017014008 0.033444002 -0.0018810623 0.099708594
-0.019605018 -0.07257626 0.011324442 0.048022375 0.06022052 -0.08690177 0.021983922 0.005694423
-0.054481823 -0.092060015 0.01436866 -0.046576053 -0.020181034 -0.14695318 -0.027637124 0.03423777
0.048195157 0.0749892 -0.063580245 -0.028967738 0.003423298 0.009597047 0.028863054 -0.082964785
0.014227908 0.06002275 0.13352393 0.06374726 -0.13564436 0.050789587 0.07858974 0.034917176
0.012823924 -0.05547379 0.09214194 0.13404228 0.12886551 -0.03580185 -0.033293113 0.13878196
0.10491193 0.068872295 0.05522292 0.0067187613 0.07458943 -0.0349036 0.030352533 0.02481479
0.02355876 -0.039587017 -0.08681192 0.01793123 -0.07003336 -0.07772614 -0.0930031 -0.06151102
-0.02877253 -0.051416613 -0.06292165 -0.105495475 0.025678903 -0.030980509 -0.04744427 0.0074070827
-0.039408218 0.048506778 -0.007884132 -0.093256444 -0.08693403 -0.049147233 -0.022173299 -0.07026544
00000000: e80a 9b3c a25a 28bd 47a7 403d 92a1 a2bc
00000010: 18c7 5a3d 3b55 1abd db1b 1fbb f086 efbb
00000020: 27db 7dbc 2b81 1d3c f424 debc 1a73 82bd
00000030: c05d c3bd f917 5cbc 6d13 0cbd 171c d6bc
00000040: a278 42bd c448 89bc ede3 b03a 7d60 fabc
00000050: 76c6 67bd 6209 84bd d68d a3bd 8e3d 843c
00000060: c56d 40bd 6416 5c3d eb88 063c fcb1 7cbc
00000070: d30c c73d 804e a83d 8144 803c 7a86 a6bd
00000080: 55aa c9bd 0238 84bd ff21 c9bd 6417 63bd
00000090: f82c 96bd 494a c2bd c0fc 6abd 00f4 8dbd
000000a0: 097b a9bd 4d9b d8bd d76f dabd 3993 d4bc
000000b0: 6619 d3bd 2725 4dbd 0ab3 bcbd 9165 56bd
000000c0: bbb7 52bd eb35 75bd 66f0 bd3d 7889 28bd
000000d0: 47b9 65bc 4e08 633d d60a 923d 0ad5 413d
000000e0: be01 6dbd d65c 44bd 09d9 92bc 74cb a03b
000000f0: d2f3 0b3d d91b 9ebd fad8 e2bc 4fe2 983d
00000100: 5548 a6bc a8ce 09bd 983c 19bb dbed 9f3c
00000110: 8419 8b3d 1f75 e3bd ed7d 09bd b6b1 abbd
00000120: 25ce 89bd 3648 52bd 959d 1fbd f7c3 e03b
00000130: c8cc 5ebd f44c a5bd 865e 91bd e5e1 963d
00000140: 5aee 9fbc 0c4e 05bd f64b a9bc ff7e f0bb
00000150: cbd4 40bd f274 6bbd 3606 ec3c b08c be3c
00000160: ff87 14bc f16b c2bd f317 8d3b 9aa4 ed3c
00000170: eab1 763d 99ab 163b cf8f bdbb 594a fdbb
00000180: 181e 6ebd 57ae c4bd 7a46 96bb 89a1 4bbc
00000190: e79e 263d f014 c5bc 1b28 41bd df1e 09bd
000001a0: 1629 60bc 8e22 b1bc 4e48 fabd db1e 56bd
000001b0: 14ad 91bd 260e e0bc af86 823b 049a 99bd
000001c0: bdad 4ebd 5400 983d 8641 833d f442 5dbd
000001d0: fcd4 a7bd 6d8c 40bd af3a d23d 2912 b7bd
000001e0: 88fb 03be eb5f ccbc e061 f93c ff0a 403d
000001f0: f8f0 b7bd 5237 19bc b76a 72bc 26b6 2d3d
00000200: 307e e83c 7fe7 263c d5e0 df3c 2f1a 73bd
00000210: 8228 b1bb 5d5b c6bc f85e 0e3d a094 8dbc
00000220: 438f e5bd 1c1a fab9 921b acbc 297d abbd
00000230: 4d10 8fbd f782 06be d0f9 94bd 48f0 13bd
00000240: 3799 97bc 3925 81bd 0338 a6bd 369e 743c
00000250: 6da9 083d 1bc6 c8bd f02a 1c3d fa16 223d
00000260: 307c 5fbd cec5 4abc bf8e 70bd dc08 f13c
00000270: 9268 8abd 447c 7d3d 2471 c63d 390c 3f3e
00000280: 22a4 133d 967d 2d3d e81b 343d 1f5c f03d
00000290: 4287 bc3d 506f d3bc 0510 4dbb 13d3 8a3d
000002a0: e949 be3d 051d ebbb a8e5 33ba c843 05bd
000002b0: 77ef ad3d cea8 373c bad4 d9bd 3baf 453d
000002c0: 8a6c aebd 0fac b23c d616 b2bd 7e95 f03c
000002d0: f660 8b3c 94fc 083d fa8d f6ba 0534 cc3d
000002e0: b49a a0bc dda2 94bd 278a 393c 1cb3 443d
000002f0: cba9 763d 8ef9 b1bd a017 b43c 4898 ba3b
00000300: 5528 5fbd f689 bcbd 876a 6b3c 88c6 3ebd
00000310: b252 a5bc e57a 16be 4067 e2bc e73c 0c3d
00000320: 4968 453d f093 993d 5c36 82bd c04d edbc
00000330: 6959 603b ef3c 1d3c 3672 ec3c 71e9 a9bd
00000340: 2c1c 693c 6ada 753d 7fba 083e ec8d 823d
00000350: 5be6 0abe be08 503d a8f3 a03d 5005 0f3d
00000360: 701b 523c 7c38 63bd eab4 bc3d 6142 093e
00000370: 52f5 033e f6a4 12bd 5c5e 08bd dc1c 0e3e
00000380: 11dc d63d eb0c 8d3d 6e31 623d 0e29 dc3b
00000390: 58c2 983d 14f7 0ebd e0a5 f83c 6348 cb3c
000003a0: 4dfe c03c ff25 22bd 73ca b1bd 84e4 923c
000003b0: a66d 8fbd e22e 9fbd 6978 bebd fbf2 7bbd
000003c0: 5eb4 ebbc 3a9a 52bd 11dd 80bd 030e d8bd
000003d0: 905c d23c d6ca fdbc ec54 42bd 1db7 f23b
000003e0: 836a 21bd 0baf 463d 722c 01bc 3cfd bebd
000003f0: 780a b2bd 9c4e 49bd c7a4 b5bc 54e7 8fbd

conv2.bias f4 [20]
0.03292866 -0.048395 -0.011833112 -0.038946837 -0.05268504 -0.01925996 0.021076618 -0.032523055
-0.0648076 0.04049971 -0.039262008 -0.07461875 -0.030496819 -0.0045047677 -0.06156216 -0.0050295545
-0.038712125 -0.024014216 0.014692178 0.0083587635
00000000: 34e0 063d d639 46bd abdf 41bc b886 1fbd
00000010: 45cc 57bd 10c7 9dbc dfa8 ac3c e536 05bd
00000020: d9b9 84bd 06e3 253d 33d1 20bd b7d1 98bd
00000030: 77d4 f9bc bb9c 93bb 9a28 7cbd f6ce a4bb
00000040: 9b90 1ebd 76b9 c4bc 76b7 703c 32f3 083c

fc1.weight f4 [50, 320]
-0.016394394 -0.029276688 0.096801 0.06492495 -0.05154025 0.03941788 0.006476501 0.0051629106
-0.050744165 -0.008383955 -0.016580973 -0.02644321 0.008003625 0.0958493 0.044926513 0.0498265
-0.0184142 -0.044632528 0.038720787 0.02226175 0.0047296663 -0.009587294 0.07571135 0.089741915
0.0060715405 0.020191226 0.01976316 0.053573053 -0.118271165 -0.050106645 0.0062186266 -0.013812763
0.02388114 0.0047079385 -0.011295135 0.03506014 0.02526097 0.02215244 -0.04790163 -0.04981863
-0.04384728 -0.043103 0.06342539 -0.021583557 -0.052439217 0.04604563 0.076046765 0.013864583
-0.03350721 0.028461335 -0.015339508 0.02942172 -0.039403416 -0.025916627 -0.054888733 -0.006095386
-0.11070996 0.0067024464 0.046844553 -0.03160539 0.07453921 0.13886091 0.06769213 0.0088732885
-0.04967692 -0.031947598 -0.026123274 -0.0028734722 -0.039290182 0.015197139 0.006207057 -0.027810698
-0.025695385 0.04126665 -0.003320674 -0.047451004 0.0390406 0.117593765 0.029723797 -0.07748098
-0.026024211 0.026259698 -0.018331118 0.030257886 -0.018051242 0.0017095536 0.0052344343 -0.014335502
0.041057408 0.08517593 0.061042443 -0.033362117 0.040681764 0.02703577 -0.040412124 -0.074873954
0.011893198 -0.015975527 0.018078506 0.055594966 -0.04105733 -0.047820885 0.044958036 0.03977084
0.045731667 0.024632182 -0.029192267 0.019788975 0.061235238 0.035959117 0.05761637 0.03063929
0.016671242 0.0043602083 0.011067326 0.09310489 0.023704883 0.079826675 0.030999081 0.025272282
-0.004157428 0.008929872 0.019831426 -0.020531133 -0.10108448 -0.06484005 0.026287155 -0.029200273
0.05359831 0.053343475 0.02601911 0.029440345 0.044584855 -0.029349104 -0.022665728 0.036078535
0.007365507 0.030425481 -0.016598208 -0.0049180044 -0.027830858 -0.010282456 0.021993555 0.053414527
0.015188622 -0.0084144045 0.045125443 -0.03486046 -0.021072013 -0.020374289 0.01757803 -0.0018574857
-0.027083328 -0.018404339 -0.00085367495 -0.013867877 0.0028966598 0.027880222 -0.040226206 -0.014665547
-0.027901482 0.024255713 0.04747808 -0.022411121 -0.04791246 0.044316385 -0.026438868 0.03565636
0.07679467 0.009534782 0.003513494 -0.024602301 0.06930239 -0.03665948 0.0016041714 -0.034558948
0.024695527 0.013365897 0.060388923 -0.008497473 0.036133595 -0.019616945 0.04336369 -0.029211111
0.012689301 0.03446319 -0.03194061 -0.075297974 -0.009738428 -0.010110493 -0.046282426 -0.061446756
0.019024251 0.05729146 0.012454592 0.0097259 -0.010771607 -0.026705913 0.012039822 -0.02744901
0.038880225 0.022974087 0.05059856 -0.017606338 -0.08523336 -0.008179046 0.026275022 0.015255938
0.079915985 0.00028982307 0.01395504 -0.011840138 -0.03807421 -0.00022379986 -0.008524006 -0.037369095
-0.025440667 0.036166113 0.034182914 0.006745301 0.10251827 0.036325257 -0.04560672 -0.06771057
0.04632998 -0.008907491 0.0015351971 -0.015959233 -0.05994512 0.0145734865 0.027536016 -0.023985539
-0.034556415 0.017059572 -0.02389591 -0.01822509 0.099856734 0.05009799 -0.074640326 -0.03778766
-0.030179827 0.046903957 -0.0013937445 0.07954652 -0.067675754 -0.00615775 0.02608247 -0.065612525
-0.028808726 -0.01989695 -0.0063595166 -0.045084834 0.018361263 0.0445422 -0.06877371 -0.06431071
00000000: 894d 86bc aad5 efbc 9a3f c63d 5ff7 843d
00000010: df1b 53bd a574 213d d438 d43b a22d a93b
00000020: 1dd9 4fbd db5c 09bc d2d4 87bc 6e9f d8bc
00000030: a321 033c a34c c43d dd04 383d df16 4c3d
00000040: 60d9 96bc 99d0 36bd b099 1e3d 465e b63c
00000050: 51fb 9a3b 0714 1dbc 8d0e 9b3d 9cca b73d
00000060: c6f3 c63b 1268 a53c 5ae6 a13c 6b6f 5b3d
00000070: 2738 f2bd a03c 4dbd 9fc5 cb3b ed4e 62bc
00000080: 61a2 c33c 0d45 9a3b 3b0f 39bc 399b 0f3d
00000090: 18f0 ce3c 0979 b53c 8034 44bd 9f0e 4cbd
000000a0: 3599 33bd c58c 30bd 2ce5 813d 00d0 b0bc
000000b0: 81ca 56bd 589a 3c3d 68be 9b3d 4728 633c
000000c0: db3e 09bd bf27 e93c 8f52 7bbc d205 f13c
000000d0: 7a65 21bd 1b4f d4bc 02d3 60bd cebb c7bb
000000e0: e7bb e2bd 32a0 db3b 13e0 3f3d a774 01bd
000000f0: 03a8 983d 8e31 0e3e 2ca2 8a3d 4561 113c
00000100: 077a 4bbd 7cdb 02bd 7a00 d6bc dd50 3cbb
00000110: beee 20bd 6cfd 783c 9164 cb3b 43d3 e3bc
00000120: 217f d2bc 3807 293d aa9f 59bb fc5b 42bd
00000130: 09e9 1f3d 00d5 f03d 527f f33c 59ae 9ebd
00000140: ba30 d5bc 941e d73c 242b 96bc 63df f73c
00000150: 33e0 93bc 1a13 e03a 9e85 ab3b 74df 6abc
00000160: d02b 283d b870 ae3d a407 7a3d b7a6 08bd
00000170: eca1 263d 1e7a dd3c 2f87 25bd 8457 99bd
00000180: b0db 423c 1cdf 82bc 6019 943c 8cb7 633d
00000190: bb2b 28bd d5df 43bd eb25 383d c0e6 223d
000001a0: 2151 3b3d 6ec9 c93c 9f24 efbc 7d1c a23c
000001b0: cdd1 7a3d de49 133d 25ff 6b3d 40ff fa3c
000001c0: 2192 883c 14e0 8e3b bb53 353c c7ad be3d
000001d0: be30 c23c 2b7c a33d c9f1 fd3c d107 cf3c
000001e0: 093b 88bb 994e 123c 8475 a23c e830 a8bc
000001f0: 6105 cfbd dcca 84bd 2958 d73c 6935 efbc
00000200: e789 5b3d b07e 5a3d 0726 d53c e12c f13c
00000210: 9c9e 363d 886d f0bc 7aad b9bc 16c7 133d
00000220: 5a5a f13b dc3e f93c f7f8 87bc 3627 a1bb
00000230: 8afd e3bc bf77 28bc d42b b43c 31c9 5a3d
00000240: b3d9 783c 92dc 09bc 75d5 383d d7c9 0ebd
00000250: 379f acbc fbe7 a6bc cdff 8f3c e176 f3ba
00000260: dbdd ddbc b2c4 96bc 28c9 5fba 1836 63bc
00000270: e3d5 3d3b 1065 e43c 3cc4 24bd c347 70bc
00000280: a691 e4bc ebb3 c63c 6078 423d 8797 b7bc
00000290: db3f 44bd 1985 353d 5396 d8bc 670c 123d
000002a0: 8646 9d3d c637 1c3c a642 663b c48a c9bc
000002b0: 69ee 8d3d 4028 16bd 0f43 d23a af8d 0dbd
000002c0: 464e ca3c a3fc 5a3c 605a 773d fc38 0bbc
000002d0: d200 143d b7b3 a0bc 209e 313d 244c efbc
000002e0: c9e6 4f3c 4629 0d3d 28d4 02bd d335 9abd
000002f0: ed8d 1fbc 7ba6 25bc a492 3dbd 98af 7bbd
00000300: bfd8 9b3c 73aa 6a3d 580e 4c3c 6259 1f3c
00000310: 657b 30bc 5cc6 dabc ac42 453c bfdc e0bc
00000320: df40 1f3d 2734 bc3c 7040 4f3d 2b3b 90bc
00000330: d48e aebd 6801 06bc b73e d73c 0bf4 793c
00000340: feaa a33d 65f3 9739 aea3 643c 23fd 41bc
00000350: b4f3 1bbd d1ab 6ab9 46a8 0bbc 5610 19bd
00000360: f268 d0bc eb22 143d 6203 0c3d b007 dd3b
00000370: 19f5 d13d cbc9 143d 1dce 3abd d7ab 8abd
00000380: 81c4 3d3d baf0 11bc ab38 c93a f0bc 82bc
00000390: 0489 75bd a2c5 6e3c 3693 e13c 527d c4bc
000003a0: 078b 0dbd 84c0 8b3c 5bc1 c3bc c94c 95bc
000003b0: b081 cc3d 8d33 4d3d 07dd 98bd 3cc7 1abd
000003c0: af3b f7bc 5d1e 403d 4eae b6ba 49e9 a23d
000003d0: 9699 8abd f3c6 c9bb e7aa d53c dc5f 86bd
000003e0: 4700 ecbc eefe a2bc 7e63 d0bb e0aa 38bd
000003f0: 5c6a 963c e271 363d 3bd9 8cbd 55b5 83bd

fc1.bias f4 [50]
0.046211753 0.031614304 -0.0041709365 -0.025538152 0.005833794 -0.0021764648 0.046170272 0.031069202
-0.013138913 -0.008826679 0.007561277 -0.028230561 0.07507135 0.017630393 0.058847744 -0.032701377
-0.0015644484 0.05980747 0.024247972 0.08113696 0.062144406 0.011997922 0.035694636 0.0056483275
-0.033652708 -0.010883787 -0.019597635 0.05688861 0.011975132 -0.048834942 -0.03118557 0.04966344
0.00022734483 -0.020657612 0.05318069 0.008687046 -0.002823382 0.07773232 0.0502025 -0.053262968
0.0069491253 0.0073809526 -0.062491134 -0.012931057 0.06595171 0.017662635 0.06254018 0.0095473025
-0.008275165 -0.004829203
00000000: 8948 3d3d 007e 013d 5aac 88bb 6335 d1bc
00000010: 6929 bf3b 05a3 0ebb 0a1d 3d3d d784 fe3c
00000020: 9844 57bc c69d 10bc 97c4 f73b c743 e7bc
00000030: 02bf 993d 9d6d 903c 550a 713d e1f1 05bd
00000040: 2d0e cdba adf8 743d afa3 c63c 222b a63d
00000050: 228b 7e3d ef92 443c 8a34 123d 9b15 b93b
00000060: 6cd7 09bd e951 32bc 388b a0bc 0804 693d
00000070: 5833 443c 2607 48bd e178 ffbc e46b 4b3d
00000080: 6a63 6e39 273a a9bc ffd3 593d 1d54 0e3c
00000090: 7d08 39bb 1f32 9f3d 23a1 4d3d 452a 5abd
000000a0: 7db5 e33b ebdb f13b b4f6 7fbd c9dc 53bc
000000b0: b111 873d 3bb1 903c 1115 803d 4a6c 1c3c
000000c0: 8f94 07bc 4a3e 9ebb

fc2.weight f4 [10, 50]
-0.23800321 -0.18872635 -0.12969775 -0.16501436 -0.02028232 0.004292766 -0.08835114 -0.13433416
0.12209489 0.11094127 0.04376295 -0.074200794 0.20654376 0.26506376 0.15372048 -0.07035091
0.1564203 -0.2483531 -0.14696598 -0.20198575 -0.17796405 -0.20176604 -0.17664242 -0.2361588
0.17156762 0.06292646 -0.084338695 -0.09900305 0.14825352 0.04916634 -0.15522061 0.16972025
0.1132508 -0.0014787294 -0.08254697 -0.19197626 -0.13754912 -0.18301937 0.09602678 -0.10707002
0.13478681 0.2351001 -0.045296002 -0.09000506 0.15093218 0.041135073 0.18693434 0.24123774
-0.1592699 0.122838944 0.08959961 0.13481236 -0.23452951 0.14424695 -0.071103774 -0.18300076
0.12183769 0.078077465 -0.20321152 -0.036109645 0.16596493 -0.22183552 0.11395167 -0.04216807
-0.22093071 0.0432811 -0.15937269 0.13944575 0.17417046 0.19708724 0.13139573 -0.25298074
-0.28761977 0.18990135 -0.0039321813 0.32074904 0.19901733 0.08466453 -0.18440297 -0.11682188
0.16095838 -0.019084658 -0.15619628 -0.16643572 -0.023574226 0.21002221 0.055197667 0.19238022
0.06114508 -0.18728846 0.14391746 -0.11483256 -0.13354915 0.20805563 -0.21930943 0.035350766
0.10485699 -0.10213752 -0.04412514 -0.15652643 -0.16873938 0.1183916 0.12853767 0.04510117
0.13822252 0.06385373 0.15354167 0.17709719 0.0894442 0.18831152 0.03399803 0.13034512
0.054578807 -0.061125297 -0.09830006 -0.116818085 -0.11690313 0.16539067 -0.12746628 -0.25233328
-0.11746714 -0.07058716 -0.15915601 0.19843751 -0.100512855 0.050757457 -0.11910168 -0.1134914
0.0005165871 -0.10753447 0.1760643 0.08489784 -0.122932844 -0.18767707 0.16880146 -0.064967155
0.16542166 0.20129155 -0.16286506 -0.053668488 -0.014596419 0.18596289 0.13210334 -0.022107702
-0.082114585 0.10612946 0.11628475 0.21160418 0.12870084 0.05162272 0.11872612 -0.16365603
0.12046087 0.095148824 -0.024059163 0.036482066 -0.1393985 0.19265872 -0.12690103 -0.08261384
0.0028898758 -0.09739154 -0.17142054 -0.04980143 -0.07160786 0.18579845 8.496249e-05 0.16417904
0.17269202 -0.15092793 -0.16905117 -0.138697 0.14763255 -0.06467736 0.14133683 -0.1510803
-0.13529079 0.15540715 -0.06835408 0.11736863 0.17262533 0.1370071 0.1930311 -0.043435894
-0.18521658 -0.16681689 0.13095969 0.18015337 -0.15294868 0.22369005 -0.03064986 -0.007980091
-0.09126094 -0.039152257 0.042097524 0.11884096 -0.041483514 -0.05238061 0.11287401 0.1036566
0.15188499 0.09091941 0.15564951 -0.07981111 0.10804407 -0.31581837 0.20128591 0.05958598
0.1106676 -0.08978658 0.2597241 0.25843906 -0.11584246 -0.05647878 -0.10099182 -0.18850285
-0.24856922 -0.16900258 0.234835 0.08015264 0.1666564 0.19568725 0.04663746 -0.06692016
-0.09205714 0.0025182008 0.0008291946 0.13883701 -0.24410072 -0.19841509 -0.1454501 -0.22872312
-0.07288363 0.25286254 0.27365786 0.17091827 -0.117059104 -0.06164378 -0.07167092 0.06748937
-0.17629081 0.10251573 -0.08970753 -0.13465226 0.22441138 -0.030215457 0.039294597 -0.029446641
-0.13800389 -0.24646989 0.12004856 0.13718861 -0.09508416 -0.15942255 0.14382796 -0.14398456
00000000: 1db7 73be 7b41 41be 7dcf 04be 86f9 28be
00000010: 1c27 a6bc 55aa 8c3b 71f1 b4bd e58e 09be
00000020: e30c fa3d 2d35 e33d c740 333d 96f6 97bd
00000030: 3580 533e 70b6 873e e768 1d3e 2314 90bd
00000040: a52c 203e 4650 7ebe 407e 16be 5ad5 4ebe
00000050: 353c 36be c29b 4ebe c0e1 34be 9dd3 71be
00000060: 6caf 2f3e 96df 803d c4b9 acbd 1cc2 cabd
00000070: c5cf 173e a562 493d 27f2 1ebe 25cb 2d3e
00000080: 09f0 e73d edd1 c1ba 630e a9bd 6d95 44be
00000090: add9 0cbe 6e69 3bbe b0a9 c43d 8747 dbbd
000000a0: 8e05 0a3e 15be 703e 4d88 39bd 9354 b8bd
000000b0: f78d 1a3e 407d 283d b76b 3f3e 0707 773e
000000c0: a617 23be fc92 fb3d 0080 b73d 400c 0a3e
000000d0: 8128 70be 79b5 133e db9e 91bd 8d64 3bbe
000000e0: 0a86 f93d 14e7 9f3d ae16 50be b5e7 13bd
000000f0: b6f2 293e da28 63be 7e5f e93d 6db8 2cbd
00000100: a93b 62be 8647 313d 9832 23be deca 0e3e
00000110: be59 323e 3dd1 493e 9a8c 063e b186 81be
00000120: e642 93be 8075 423e 87d9 80bb 3839 a43e
00000130: 33cb 4b3e 9964 ad3d 22d4 3cbe 4f40 efbd
00000140: 46d2 243e 6e57 9cbc ebf1 1fbe 206e 2abe
00000150: bc1e c1bc 1010 573e f316 623d 52ff 443e
00000160: 4373 7a3d 8cc8 3fbe 195f 133e 552d ebbd
00000170: 1cc1 08be 890c 553e a792 60be f7cb 103d
00000180: 43bf d63d 7a2d d1bd 90bc 34bd 7748 20be
00000190: 04ca 2cbe 4c77 f23d 619f 033e 01bc 383d
000001a0: 348a 0d3e bfc5 823d 073a 1d3e f758 353e
000001b0: 852e b73d bcd4 403e 8541 0b3d 3179 053e
000001c0: 078e 5f3d 855e 7abd 8b51 c9bd 523e efbd
000001d0: e96a efbd 2c5c 293e 8586 02be d431 81be
000001e0: 9d92 f0bd 0090 90bd cbf9 22be 3433 4b3e
000001f0: afd9 cdbd 0de7 4f3d 95eb f3bd 2e6e e8bd
00000200: 936b 073a 083b dcbd 334a 343e ebde ad3d
00000210: 37c4 fbbd 6b2e 40be 4ada 2c3e 800d 85bd
00000220: 4c64 293e 5f1f 4e3e 19c6 26be 7dd3 5bbd
00000230: d225 6fbc 0e6d 3e3e 1946 073e 361b b5bc
00000240: b12b a8bd 675a d93d b326 ee3d c4ae 583e
00000250: 27ca 033e 5872 533d ae26 f33d 7295 27be
00000260: 30b4 f63d 63dd c23d b917 c5bc 386e 153d
00000270: 7bbe 0ebe 5448 453e 58f2 01be 7231 a9bd
00000280: 1264 3d3b 3775 c7bd de88 2fbe 96fc 4bbd
00000290: 24a7 92bd f341 3e3e e42d b238 8d1e 283e
000002a0: 2dd6 303e da8c 1abe c01b 2dbe 9606 0ebe
000002b0: fd2c 173e 9075 84bd 9aba 103e cbb4 1abe
000002c0: ab89 0abe 0d23 1f3e 39fd 8bbd f75e f03d
000002d0: b2c4 303e 974b 0c3e f2a9 453e d6e9 31bd
000002e0: 6aa9 3dbe 0cd2 2abe 4c1a 063e 207a 383e
000002f0: 949e 1cbe 010f 653e 6a15 fbbc edbe 02bc
00000300: 04e7 babd 1e5e 20bd 746e 2c3d e462 f33d
00000310: 9eea 29bd 0d8d 56bd 7d2a e73d e949 d43d
00000320: bd87 1b3e f533 ba3d 9662 1f3e 0274 a3bd
00000330: 3646 dd3d f2b2 a1be e51d 4e3e 6e10 743d
00000340: b2a5 e23d 07e2 b7bd 8ffa 843e 2052 843e
00000350: d03e edbd 4b56 67bd cdd4 cebd e406 41be
00000360: ee88 7ebe 030f 2dbe 9678 703e 1127 a43d
00000370: faa7 2a3e 3d62 483e ec06 3f3d 700d 89bd
00000380: 7488 bcbd 6608 253b 4f5e 593a 4a2b 0e3e
00000390: 8af5 79be 532d 4bbe dff0 14be 6536 6abe
000003a0: 0344 95bd 3377 813e e21c 8c3e 3305 2f3e
000003b0: afbc efbd 307e 7cbd 34c8 92bd de37 8a3d
000003c0: 9485 34be c4f3 d13d 95b8 b7bd 48e2 09be
000003d0: 19cc 653e 6886 f7bc 5ff3 203d 153a f1bc
000003e0: e450 0dbe 9a62 7cbe 05dc f53d 2c7b 0c3e
000003f0: 7cbb c2bd aa3f 23be a347 133e b070 13be

fc2.bias f4 [10]
0.090723 0.16335133 -0.08339315 -0.16200149 -0.054688085 -0.06675961 -0.031067602 -0.04870617
0.20665385 0.05812182
00000000: fbcc b93d 9245 273e 07ca aabd b8e3 25be
00000010: 9d00 60bd 43b9 88bd 7c81 febc 1f80 47bd
00000020: 119d 533e 2511 6e3d
