udemyCourses/mnistProject/mnist/results/model.pth (torch, 89871 bytes, 8 tensors)

conv1.weight f4 [10, 1, 5, 5]
0	0xbd9c2d36	-0.07625811
1	0x3ea41acf	0.32051703
2	0x3e495746	0.19662198
3	0x3e81d89c	0.25360572
4	0x3e7d80cc	0.24756163
5	0x3e279223	0.1636434
6	0x3e8bd817	0.273133
7	0x3e614794	0.21999961
8	0x3e5ad49c	0.21370167
9	0x3d558e66	0.052137755
10	0xbd4b2c02	-0.049602516
11	0xbd204bed	-0.03913491
12	0x3cbf79f0	0.023373574
13	0xbd7fd562	-0.062459357
14	0x3d868dca	0.06570013
15	0xbd80b843	-0.06285145
16	0xbe72a472	-0.23695543
17	0xbea48cff	-0.3213882
18	0xbe7a4ddf	-0.24443768
19	0xbe751ab5	-0.23935969
20	0xbe01a651	-0.12661101
21	0xbe2922ff	-0.16517256
22	0xbe114e4d	-0.14190026
23	0xbddfb5f4	-0.10923377
24	0xbe58064c	-0.21096152
25	0x3e47df99	0.1951889
26	0x3e9ea24d	0.309832
27	0x3ec869e7	0.39143297
28	0x3e28a3c2	0.16468719
29	0xbe57165e	-0.21004626
30	0xbe8cfff5	-0.2753903
31	0xbcb9a66f	-0.02266237
32	0x3ed23297	0.41054222
33	0x3ea55b98	0.32296443
34	0x3ea872bc	0.32900035
35	0xbec0b69c	-0.3763932
36	0x3be62e68	0.007024575
37	0xbbfc434c	-0.007698452
38	0x3eac0f54	0.33605444
39	0x3ea18cdc	0.3155278
40	0xbedbe691	-0.42949346
41	0xbddafb5c	-0.10692474
42	0xbe5d9dee	-0.21642277
43	0xbdbf31f5	-0.093357004
44	0x3ddfd217	0.10928743
45	0xbe73eb8c	-0.23820323
46	0xbeab7d04	-0.33493817
47	0xbe8c7b75	-0.2743794
48	0xbe0c6986	-0.13712129
49	0xbcc251f4	-0.023720719
50	0x3eab55be	0.33463854
51	0x3ecc1797	0.39861748
52	0x3e217454	0.15767032
53	0xbde03eec	-0.109495014
54	0x3e00a8e9	0.12564434
55	0xb9ab55ce	-0.0003267959
56	0xbd2aff7f	-0.041747566
57	0x3e713306	0.2355462
58	0x3e19c1da	0.15015355
59	0x3e57afe3	0.21063189
60	0xbe33b5c0	-0.17549801
61	0x3bd5c5af	0.00652381
62	0x3df04faa	0.11733945
63	0x3e08296e	0.13297054
64	0xbe179994	-0.14804679
65	0xbe0faa0c	-0.14029711
66	0x3e4ac20f	0.1980059
67	0x3d835ea5	0.064145364
68	0x3e06d5f0	0.13167548
69	0xbddb828b	-0.107182585
70	0x3d1cf066	0.0383152
71	0x3ddb9612	0.10721983
72	0x3dbfc3f0	0.09363544
73	0x3c208053	0.00979622
74	0xbeb5916c	-0.3546251
75	0x3e044c21	0.12919666
76	0xbe4892a6	-0.19587192
77	0xbe753440	-0.23945713
78	0xbdc82bc4	-0.09773973
79	0xbdd21461	-0.10257793
80	0x3e6bba5f	0.23020314
81	0xbd95d24d	-0.07315502
82	0xbe7e989d	-0.24862905
83	0x3da5415c	0.08069107
84	0xbd6ad6fc	-0.05733393
85	0x3e875c98	0.2643783
86	0x3e4e2c22	0.20134023
87	0xbdfa6adf	-0.12227415
88	0x3d83a8ad	0.06428657
89	0x3dc946e2	0.09827973
90	0xbc91d38e	-0.017801072
91	0x3d0dc9ac	0.034616157
92	0x3e0b44ac	0.13600415
93	0x3dc4416d	0.095827915
94	0xbc7a570e	-0.0152795445
95	0x3dad93a3	0.08475425
96	0x3eaabc99	0.33347014
97	0x3d13b106	0.036057495
98	0x3e233688	0.15938771
99	0x3e273a5a	0.16330853
100	0xbe3b5870	-0.18295455
101	0xbe7796ce	-0.24178621
102	0x3ddcd607	0.1078301
103	0x3d360baf	0.044444736
104	0x3e4c6a71	0.19962479
105	0x3daf1ab9	0.08550019
106	0x3e280da4	0.16411453
107	0x3e9f5f4e	0.311274
108	0x3eaa9029	0.3331311
109	0xbdd6f061	-0.104950674
110	0x3dfab697	0.122418575
111	0x3e38a9ee	0.18033573
112	0x3deba0cd	0.1150528
113	0x3e1afd50	0.15135694
114	0xbe10f680	-0.14156532
115	0xbdf1d89d	-0.11808894
116	0xbe6870bb	-0.22699253
117	0xbe0784ee	-0.13234302
118	0x3e5c1f02	0.21496204
119	0xbd345123	-0.04402269
120	0xbdafe8d5	-0.08589331
121	0xbeb036ae	-0.34416717
122	0xbeac1263	-0.33607778
123	0xbd143e62	-0.036192305
124	0x3e451ba0	0.1924882
125	0x3e93f1cf	0.28895423
126	0x3d042686	0.0322633
127	0x3e1beea9	0.1522776
128	0x3e6679d2	0.22507408
129	0x3de7d832	0.11320533
130	0x3e42445a	0.18971387
131	0x3e8ecf1c	0.27892387
132	0x3e31fc49	0.17381395
133	0x3d40e207	0.047090556
134	0xbe577169	-0.21039356
135	0xbe60f7ba	-0.219695
136	0xbe2c4ea0	-0.16826868
137	0xbd89a7cf	-0.0672146
138	0xbe1d97ce	-0.1538994
139	0x3d5952c3	0.053057443
140	0x3d0f47b2	0.034980483
141	0xbdfce73a	-0.123487905
142	0x3dae9205	0.08523945
143	0x3e15620d	0.14588185
144	0x3e946080	0.28979874
145	0x3e402e06	0.18767557
146	0xbcb5c87b	-0.022190323
147	0x3e82ded3	0.25560626
148	0x3d0f3459	0.034962032
149	0x3d5574ea	0.05211345
150	0xbeb70fe3	-0.35754308
151	0xbeb4e6bf	-0.35332295
152	0xbe74dba9	-0.23911919
153	0xbc98c9c3	-0.018650895
154	0x3e99f71c	0.30071342
155	0xbed8647c	-0.42264163
156	0xbe92baee	-0.2865824
157	0x3d81de49	0.06341226
158	0x3e856f49	0.26061466
159	0x3ecb69ac	0.3972906
160	0xbed678d5	-0.41889063
161	0xbd89a383	-0.067206405
162	0x3cf0cdd3	0.02939502
163	0x3ea82edb	0.32848248
164	0x3e21cd4f	0.15800975
165	0xbeb61b2e	-0.3556761
166	0xbdd808d6	-0.1054856
167	0x3e892725	0.26787677
168	0x3eacc64d	0.3374504
169	0x3e5d7bd7	0.21629272
170	0x3d306a38	0.043070048
171	0x3e250c11	0.16117884
172	0x3e6b4210	0.2297442
173	0x3e12ae74	0.14324361
174	0xbd6550b0	-0.055985153
175	0x3db6db0d	0.08928499
176	0xbd6c6ead	-0.057722736
177	0xbd614e26	-0.05500617
178	0xbea1a6c7	-0.31572554
179	0xbe5dfb54	-0.21677905
180	0xbdceef74	-0.10104266
181	0x3d91e188	0.07123095
182	0xbebe4325	-0.37160602
183	0xbee14c8e	-0.4400372
184	0xbe9180d0	-0.2841859
185	0xbcf4ec42	-0.029897813
186	0x3c87ec32	0.016592119
187	0xbdc780a9	-0.09741337
188	0xbe0cdda0	-0.13756418
189	0x3c98d187	0.018654598
190	0x3e7e30e7	0.24823342
191	0xbd9cfdea	-0.07665618
192	0x3ea23ad9	0.31685522
193	0x3ee4de2c	0.44700754
194	0x3eeb6b8d	0.45980492
195	0xbd1c4ccb	-0.038159173
196	0x3e5ddd17	0.2166637
197	0x3e0c600f	0.13708518
198	0x3ed41cbb	0.4142817
199	0x3c9d2f55	0.019187609
200	0x3e84ed2a	0.25962192
201	0x3df064ee	0.11738001
202	0xbda685c9	-0.08130986
203	0xbe553c92	-0.20823887
204	0xbe44e003	-0.19226079
205	0x3e97b897	0.29633018
206	0x3e4f624a	0.20252338
207	0xbd0f6a6c	-0.0350136
208	0xbefc101e	-0.49231046
209	0xbe24151e	-0.1602368
210	0x3ea49152	0.3214212
211	0x3eb53cfd	0.35398093
212	0x3d823fa9	0.063597985
213	0xbec7f855	-0.3905665
214	0xbea0e2d6	-0.31423062
215	0x3eab92bb	0.33510384
216	0x3da099cb	0.07841834
217	0x3e68ea2f	0.22745584
218	0xbe8e2d56	-0.27768964
219	0xbe9387ab	-0.28814444
220	0x3e5247bc	0.20535177
221	0x3d966f16	0.07345407
222	0x3c88f819	0.016719865
223	0x3d599ec4	0.053129926
224	0x3d54d096	0.051956736
225	0x3df7951e	0.12088989
226	0xbcfadc9c	-0.030622773
227	0xbcceb9cd	-0.025235081
228	0x3eb4914a	0.35267097
229	0x3dea9978	0.11455053
230	0xbe806f34	-0.2508484
231	0xbc0e1b18	-0.008673452
232	0xbdeeb02f	-0.11654698
233	0x3e3088cd	0.17239685
234	0x3e80e553	0.2517496
235	0xbeaa2a01	-0.3323517
236	0xbec2731f	-0.37978455
237	0xbe6b2521	-0.22963382
238	0xbdd5a47e	-0.10431765
239	0xbd179624	-0.03700842
240	0xbe0c344b	-0.13691823
241	0xbe63212c	-0.22180623
242	0xbed1aa91	-0.40950444
243	0xbeb42b2a	-0.35189182
244	0xbea559b9	-0.32295015
245	0x3e947ef2	0.29003102
246	0x3e3d3e68	0.18480837
247	0xbd72abeb	-0.059245985
248	0xbdb9942d	-0.090614654
249	0xbdd1aa26	-0.10237531

conv1.bias f4 [10]
0	0xbcc6c370	-0.024263114
1	0x3bc24a09	0.005929236
2	0x3e21fb6d	0.15818568
3	0x3de521fc	0.11188123
4	0x3defd39d	0.11710284
5	0x3c324c12	0.010882394
6	0x3db35a3d	0.08757446
7	0x3de70005	0.112793006
8	0xbe09140b	-0.13386552
9	0x3dd48e78	0.10378736

conv2.weight f4 [20, 10, 5, 5]
0	0xba6b02c0	-0.00089649484
1	0xbd8ee8ba	-0.06977983
2	0x3ce44598	0.027865216
3	0xbcfede98	-0.031112
4	0x3cf1a30b	0.02949669
5	0xbcb3f59c	-0.021967702
6	0xbc807a12	-0.015683208
7	0xbc8ce416	-0.017198604
8	0xbd1a47cd	-0.03766613
9	0xbb3b5fec	-0.002859111
10	0xbcb893e2	-0.022531454
11	0xbdb622c1	-0.088933475
12	0xbdd54b96	-0.104148075
13	0x3c1bf461	0.009518714
14	0xbcb38fe2	-0.021919195
15	0xbd2f4950	-0.042794526
16	0xbd90c8f3	-0.07069578
17	0xbc05e2b0	-0.008171722
18	0xbc7b9003	-0.015354159
19	0xbd892952	-0.06697334
20	0xbd9c6124	-0.076357156
21	0xbd807b17	-0.062734775
22	0xbdc3e936	-0.09565966
23	0xbc5a8889	-0.013338217
24	0xbd835592	-0.064128056
25	0x3d343894	0.04399927
26	0xbbcab0d5	-0.006185631
27	0xbd7a549b	-0.061115842
28	0x3d6540b4	0.05596991
29	0x3dafadc8	0.08578068
30	0x3d82e8b1	0.063920386
31	0xbdb6cd32	-0.08925857
32	0xbe0c3820	-0.13693285
33	0xbde5b589	-0.11216266
34	0xbe016459	-0.12635936
35	0xbd25c659	-0.040472362
36	0xbda576c4	-0.08079293
37	0xbdeecde0	-0.11660361
38	0xbd96d4cb	-0.07364806
39	0xbd9f5e43	-0.07781651
40	0xbde8db41	-0.11369944
41	0xbdf39884	-0.118943244
42	0xbdd233cf	-0.10263788
43	0xbd668184	-0.05627586
44	0xbdd4187d	-0.10356233
45	0xbde990b5	-0.11404554
46	0xbdcc348d	-0.09970961
47	0xbd712359	-0.0588716
48	0xbcffc3b6	-0.031221252
49	0x3bc9d747	0.0061596963
50	0x3dc99df8	0.09844583
51	0xbd077152	-0.033067055
52	0xbc99e653	-0.018786585
53	0x3d322885	0.043495674
54	0x3da6de76	0.081479
55	0x3da4450d	0.08020983
56	0xbd525a71	-0.051355783
57	0xbd022d09	-0.03178123
58	0xbc83f52d	-0.01610812
59	0x3ba9e417	0.005184661
60	0x3cf75e26	0.03019626
61	0xbdb54a52	-0.08852066
62	0x3b391f49	0.0028247407
63	0x3d962a70	0.07332313
64	0xbb60e2a7	-0.0034314783
65	0xbd4a93cf	-0.049457368
66	0xbb92c415	-0.004478941
67	0x3bea728b	0.007154768
68	0x3d0e5320	0.034747243
69	0xbde9bc22	-0.114128366
70	0xbd43749c	-0.04771863
71	0xbdc2c42a	-0.095100716
72	0xbdc3c7a2	-0.09559561
73	0xbd3a2f72	-0.045455404
74	0xbc1d693a	-0.0096076075
75	0x3c235bf2	0.009970652
76	0xbd89cdfe	-0.06728743
77	0xbd8ca90a	-0.06868179
78	0xbda4dacf	-0.08049547
79	0x3d43b475	0.04777952
80	0xbd217eaa	-0.039427437
81	0xbd5dc68c	-0.054144427
82	0xbbd36879	-0.006451663
83	0xbcd0c575	-0.02548478
84	0xbd4b34d5	-0.04961093
85	0xbd8b0164	-0.067873746
86	0x3c853c89	0.016264217
87	0x3c03e41c	0.008049991
88	0xbcdd8baa	-0.027044136
89	0xbdede465	-0.116158284
90	0xbc705cbf	-0.01467055
91	0x3cdaa66c	0.026690684
92	0x3d0d83c7	0.0345495
93	0xbb20d538	-0.002454115
94	0xbbc5ff2a	-0.006042381
95	0xbc96ba60	-0.018399417
96	0xbd8429da	-0.06453295
97	0xbdeb4898	-0.114884555
98	0x3b97650b	0.0046201996
99	0xbab9b52e	-0.0014168376
100	0x3ce4c8b5	0.027927736
101	0xbd554629	-0.052068863
102	0xbda4c15c	-0.08044693
103	0xbd8b88a2	-0.0681317
104	0xbb83fc3a	-0.0040278705
105	0xbbf1c79c	-0.0073785316
106	0xbe0100c1	-0.12597944
107	0xbd93a00d	-0.07208262
108	0xbdb82b6e	-0.089926586
109	0xbccf300e	-0.025291469
110	0xbc10894d	-0.008821798
111	0xbdc0ff91	-0.094237454
112	0xbd2d6c21	-0.042339448
113	0x3d80af9a	0.06283493
114	0x3dab737c	0.08371636
115	0xbd93a8b4	-0.07209912
116	0xbd9b23df	-0.07575201
117	0xbd1f9f3f	-0.03897023
118	0x3dc73021	0.09725977
119	0xbd9258f5	-0.071458735
120	0xbe17b89a	-0.14816514
121	0xbcbf3781	-0.023341896
122	0x3c26f2bb	0.010189707
123	0xbb8b2e4a	-0.0042474614
124	0xbd788b9d	-0.06068002
125	0xbd033a75	-0.03203817
126	0xbd40ba59	-0.047052715
127	0x3d29bf62	0.041442282
128	0x3c925b93	0.017865932
129	0x3b09081a	0.002090937
130	0x3c690697	0.014222763
131	0xbd8563d5	-0.06513182
132	0xbc7366a4	-0.014856014
133	0xbd815cf4	-0.063165575
134	0x3d2b6615	0.0418454
135	0xbd4c044a	-0.049808778
136	0xbe02a529	-0.12758316
137	0x3b70be88	0.003673466
138	0xbcf125e2	-0.02943701
139	0xbd979844	-0.07402089
140	0xbdb43a46	-0.08800177
141	0xbe21eaed	-0.15812273
142	0xbdc7cc43	-0.09755757
143	0xbd14c11d	-0.03631698
144	0x3c03d7fd	0.008047101
145	0xbd991b67	-0.0747593
146	0xbdc55223	-0.09634807
147	0x3c6ebf08	0.014571913
148	0x3cee54e6	0.029093217
149	0xbdbe7281	-0.09299184
150	0x3da48f3c	0.08035132
151	0x3d93cfea	0.07217391
152	0xbaa7154c	-0.0012747436
153	0xbcb9685b	-0.022632768
154	0xbd8fbc1a	-0.070182994
155	0x3d72ae39	0.059248183
156	0xbca91109	-0.020638006
157	0x3dee9d73	0.11651125
158	0x3d9fabcf	0.07796442
159	0x3e655526	0.22395763
160	0x3db13660	0.08652949
161	0x3e0544af	0.13014482
162	0x3da55466	0.08072738
163	0x3dd43490	0.10361588
164	0x3e05b8d8	0.13058794
165	0x3d16dab6	0.036829673
166	0x3d39c84e	0.04535704
167	0x3da63885	0.08116249
168	0x3d9ca956	0.07649486
169	0x3d33ecc3	0.043926965
170	0x3c7a8a9d	0.015291837
171	0x3b1421cb	0.002260315
172	0x3de97869	0.113999195
173	0x3d88f8f7	0.06688111
174	0xbe0f040a	-0.13966385
175	0xbbf4fdae	-0.00747653
176	0xbdf121e8	-0.11774045
177	0x3ce762dc	0.028245382
178	0xbdf7454c	-0.12073764
179	0xbd1b43ed	-0.037906576
180	0xbcf81119	-0.03028159
181	0x3cc0b724	0.023524828
182	0xbc3271c2	-0.01089138
183	0x3dc8f394	0.09812084
184	0x3b824926	0.003976005
185	0xbda79abc	-0.0818381
186	0x3baa2fc7	0.005193684
187	0x3c5df688	0.013547547
188	0x3d954867	0.072892
189	0xbda49363	-0.08035924
190	0xbb0cc88b	-0.0021481838
191	0xbc85b712	-0.016322646
192	0xbdad54e7	-0.084634595
193	0xbdb1961a	-0.08671208
194	0x3d117e3b	0.035520773
195	0xbd87140d	-0.06595621
196	0xbd559a3a	-0.052149035
197	0xbe31594c	-0.1731922
198	0xbd038b14	-0.032115057
199	0x3d85f83a	0.06541486
200	0x3e0a73e8	0.13520777
201	0x3e0d0a4e	0.13773462
202	0xbc94bbc1	-0.018155934
203	0xbd5321ee	-0.05154603
204	0xba74bb60	-0.00093357824
205	0x3d86e5f7	0.06586831
206	0x3d8aa61e	0.067699656
207	0xbd79c153	-0.060975384
208	0x3c583cd1	0.0131980935
209	0x3d841ace	0.06450425
210	0x3e2aec1d	0.16691633
211	0x3da95b30	0.08269346
212	0xbe01454f	-0.12624095
213	0x3d6d3d85	0.057919998
214	0x3d786bb9	0.060649607
215	0x3d4874c4	0.04893948
216	0x3cf76cea	0.030203301
217	0xbc4196dc	-0.011815753
218	0x3dbaf64b	0.09129008
219	0x3dd6f339	0.1049561
220	0x3e1634dc	0.14668602
221	0x3c26a492	0.010171073
222	0x3cb1d471	0.021707745
223	0x3e14b862	0.14523461
224	0x3dafc1a8	0.08581859
225	0x3d80ad11	0.0628301
226	0x3d4f922f	0.05067652
227	0xbb448074	-0.002998379
228	0x3dbc9464	0.09207991
229	0xbcb735c6	-0.022364508
230	0x3d82804e	0.063721284
231	0x3cff3a96	0.031155866
232	0x3c2b4a33	0.010454702
233	0xbd1a083a	-0.0376055
234	0xbdf1ae58	-0.118008316
235	0x3d107625	0.03526892
236	0xbd86d19e	-0.0658295
237	0xbd722821	-0.0591203
238	0xbdbfba83	-0.09361746
239	0xbd8b7474	-0.06809321
240	0xbd21ad16	-0.03947171
241	0xbd2e956a	-0.04262296
242	0xbd7177c7	-0.05895212
243	0xbde41ce5	-0.11138324
244	0x3d466c3d	0.048443068
245	0xbd0ca934	-0.034341052
246	0xbd1f3b10	-0.038874686
247	0xbc5be5ea	-0.013421515
248	0xbbb55138	-0.0055333637
249	0x3dc22763	0.09480169
250	0xbcb7aaf9	-0.022420393
251	0xbd8756b0	-0.06608331
252	0xbd6eb9c8	-0.058282644
253	0xbd7bd8e4	-0.06148614
254	0xbd3914be	-0.045185797
255	0xbdce84e1	-0.100839384

conv2.bias f4 [20]
0	0x3d54a539	0.05191538
1	0xbd3339ed	-0.043756414
2	0xbaa429cc	-0.0012524663
3	0xbc93f188	-0.018059507
4	0xbd7145aa	-0.058904327
5	0xbc9c9352	-0.019113217
6	0x3ccd0a33	0.025029277
7	0xbccf50ac	-0.025307022
8	0xbd7de431	-0.0619852
9	0x3ca934f7	0.020655138
10	0xbd7450da	-0.05964742
11	0xbd80a5ce	-0.06281625
12	0xbd1607bf	-0.03662848
13	0x3be19a28	0.006884832
14	0xbd955815	-0.07292191
15	0xbce0063a	-0.027346719
16	0xbd270be9	-0.040782843
17	0xbcf3f9b4	-0.029782154
18	0x3bdab63b	0.0066745556
19	0x3c4867d9	0.01223179

fc1.weight f4 [50, 320]
0	0xbd00b51b	-0.031422716
1	0xbd00a481	-0.031406883
2	0x3db418c4	0.08793786
3	0x3d8927ed	0.06697068
4	0xbd0431b6	-0.03227397
5	0x3ce3f322	0.027825896
6	0xbcc1cb42	-0.023656491
7	0x3bce1688	0.006289307
8	0xbd3e2fb1	-0.0464322
9	0x3c586371	0.013207302
10	0xbd14c42a	-0.03631989
11	0xbd56f4cd	-0.052479554
12	0x3ca1788a	0.019710798
13	0x3dbdbc87	0.09264474
14	0x3da5b971	0.08092011
15	0x3d291533	0.041279983
16	0xbd1c906a	-0.03822366
17	0xbce307db	-0.027713707
18	0x3d15677e	0.03647565
19	0x3c40f12d	0.011776251
20	0xbcec7aa9	-0.028867083
21	0x3aa1147f	0.0012289434
22	0x3d5a11da	0.05323968
23	0x3ddbf377	0.107397966
24	0x3c6c55c6	0.014424747
25	0x3d1a865e	0.0377258
26	0x3d361b9c	0.044459924
27	0x3d1ddee1	0.038542632
28	0xbe22bb5b	-0.15891783
29	0xbd948571	-0.072520144
30	0x3cb2b7c2	0.021816138
31	0x3cd97fe6	0.026550245
32	0xbc901a55	-0.017590681
33	0xbcf4fed1	-0.029906662
34	0x3c68c018	0.014205955
35	0x3d84228e	0.06451903
36	0x3c856c09	0.016286867
37	0x3cde1b16	0.027112525
38	0xbcbc60a7	-0.022995306
39	0xbd0bbfe3	-0.034118544
40	0xbc7119a4	-0.014715586
41	0xbce39d14	-0.027784862
42	0x3db204dd	0.08692334
43	0xbd117d83	-0.035520088
44	0xbce2ce36	-0.02768622
45	0x3db418c2	0.08793785
46	0x3de1deac	0.110287994
47	0x3cc8c8e0	0.024509847
48	0xbcce1a28	-0.025158957
49	0x3ccd9ca8	0.025099114
50	0xbc46aac0	-0.012125671
51	0x3b0ba525	0.002130815
52	0xbcd6b4ed	-0.026209319
53	0xbca7af6b	-0.020469388
54	0xbceff3ba	-0.029291023
55	0xbd26f016	-0.040756308
56	0xbe07d36e	-0.13264248
57	0x3a692383	0.0008893536
58	0x3caafdd9	0.020872997
59	0xbc6745b2	-0.014115738
60	0x3e16998d	0.14707012
61	0x3e3c8aac	0.18412274
62	0x3c98db41	0.018659236
63	0x3bb7bdc8	0.0056073405
64	0xbd4f58be	-0.05062174
65	0xbcdce013	-0.026962316
66	0x3aef8f44	0.0018276949
67	0xbb487dcf	-0.0030592566
68	0xbcf83745	-0.030299792
69	0x3c68dde5	0.01421306
70	0x3c54310f	0.01295115
71	0xbcffe13a	-0.031235326
72	0xbc5ec298	-0.013596199
73	0x3d2c6727	0.04209056
74	0x3d1c5f99	0.038177107
75	0xbcdfe30f	-0.02732995
76	0x3d1274c4	0.035755888
77	0x3da50a70	0.080586314
78	0x3c9bbbcb	0.019010445
79	0xbd953bcd	-0.07286797
80	0xbbaaeb8c	-0.0052160677
81	0x3d122202	0.035676964
82	0xbcceb327	-0.02523191
83	0x3d0d92e2	0.034563906
84	0x3cb20773	0.021732068
85	0xba09000e	-0.00052261434
86	0xbbc87995	-0.0061180093
87	0x3bcd9c10	0.0062747076
88	0x3da4e335	0.08051149
89	0x3d8d37e1	0.06895424
90	0x3d169155	0.036759693
91	0xbbc53133	-0.006017828
92	0x3d599b6c	0.053126737
93	0xba0fa1f5	-0.00054791506
94	0xbd375bd7	-0.04476532
95	0xbd74cbc8	-0.059764653
96	0x3c3be137	0.01146727
97	0xbc2e8e4f	-0.010654046
98	0x3caa1186	0.020760309
99	0x3d483777	0.04888102
100	0xbd3f670f	-0.046729144
101	0xbd3d4633	-0.046209525
102	0x3cd01efc	0.0254054
103	0x3d025f8c	0.0318294
104	0x3d0d223a	0.03445647
105	0x3bdc47cf	0.0067224274
106	0xbd3e75df	-0.04649913
107	0x3c5992f5	0.013279666
108	0x3d9e2837	0.07722514
109	0x3d806dc6	0.062709376
110	0x3db766d9	0.089551635
111	0x3ca52871	0.020160886
112	0x3d339108	0.043839484
113	0x3cbe6751	0.023242624
114	0x3d0105a8	0.031499535
115	0x3dee7615	0.11643616
116	0x3d185188	0.03718713
117	0x3de28a45	0.11061529
118	0x3d489acc	0.04897575
119	0x3cc3831c	0.023866229
120	0xbc61f232	-0.013790654
121	0x3c5e7f58	0.013580166
122	0x3c547216	0.012966653
123	0xbd29b9cb	-0.04143695
124	0xbdbc1301	-0.09183312
125	0xbd77bb2d	-0.06048124
126	0xbb74485d	-0.0037274577
127	0xbd1fcef4	-0.039015725
128	0x3d402391	0.04690892
129	0x3d6ffa03	0.05858804
130	0x3d09a3ac	0.033603355
131	0x3cf2306e	0.029564109
132	0x3cc18b71	0.023626061
133	0xbd0e4cdc	-0.034741268
134	0xbc98c7f8	-0.01865004
135	0x3d00f628	0.031484753
136	0x3c6dda09	0.014517316
137	0x3d4e635d	0.05038773
138	0x39ceab57	0.0003941904
139	0xbbb85d11	-0.0056263288
140	0xbd5fea55	-0.054666836
141	0xbc6658b3	-0.0140592335
142	0x3d25976a	0.040427603
143	0x3d7f5d9e	0.06234514
144	0x3d32e076	0.043671094
145	0xbcd514bd	-0.026010865
146	0x3cc8ce63	0.024512475
147	0xbd0f021b	-0.034914117
148	0xbc8ed987	-0.01743771
149	0xbc3b71c8	-0.011440702
150	0x3d32a528	0.043614537
151	0xbc3f589d	-0.011678842
152	0xbba20687	-0.004944626
153	0xbc174be9	-0.009234407
154	0xbb9cea49	-0.004788671
155	0xbc6bbd06	-0.014388328
156	0x3caa1a88	0.020764604
157	0x3bb413fa	0.0054955455
158	0xbda060e6	-0.07830982
159	0xbcc85c66	-0.024458122
160	0xbd0538af	-0.03252476
161	0x3c7c4146	0.015396422
162	0x3d19d738	0.037558764
163	0xbd13f735	-0.036124427
164	0xbd522912	-0.0513087
165	0x3c79bff1	0.015243516
166	0xbce29562	-0.027659122
167	0x3cfa4478	0.030550227
168	0x3de0516d	0.10953031
169	0x3d00db56	0.031459175
170	0xbb2ac6b0	-0.0026058368
171	0xbcd8c077	-0.026458962
172	0x3dc47496	0.095925495
173	0xbd3827f4	-0.044959977
174	0xb9d60623	-0.00040821833
175	0xbd235db3	-0.03988428
176	0x3cecfd68	0.028929427
177	0x3bba67cb	0.0056886426
178	0x3d81abb1	0.06331576
179	0xbc09a8ce	-0.008402063
180	0x3d1239b7	0.035699572
181	0xbd3473c0	-0.0440557
182	0x3d3cfb5f	0.046138164
183	0x3c6d1826	0.0144710895
184	0x3b055473	0.0020344525
185	0x3cedc7c8	0.029025927
186	0xbcb16643	-0.021655207
187	0xbdbe8f62	-0.09304692
188	0xbd09b122	-0.033616193
189	0xbd0a40c1	-0.03375316
190	0xbd23220b	-0.039827388
191	0xbda7513f	-0.08169793
192	0x3d59cc3c	0.05317329
193	0x3d177702	0.03697873
194	0x3b5d6125	0.0033779826
195	0xbc7d3b55	-0.01545604
196	0xbcdc0fa7	-0.026862932
197	0xbc6227f8	-0.013803475
198	0x3cdbb3c2	0.026819114
199	0xbce2b366	-0.027673434
200	0x3cecbca4	0.028898545
201	0x3cee7cf1	0.029112311
202	0x3d847f14	0.06469551
203	0xbb044e5e	-0.0020188312
204	0xbd9ce0ff	-0.07660102
205	0xbbfc5b60	-0.0077013224
206	0x3ca446a7	0.02005322
207	0x3c597911	0.013273493
208	0x3de6aee4	0.112638265
209	0x3d110873	0.03540845
210	0x3c9b61a0	0.01896745
211	0xbc9eb69d	-0.019374186
212	0xbbc5d315	-0.006037126
213	0xbca26a82	-0.019826178
214	0xbcdc5c73	-0.026899552
215	0xbbf00c9f	-0.0073257233
216	0xbc0602aa	-0.008179346
217	0x3cdad9c1	0.026715161
218	0x3c82c665	0.015963743
219	0x3d32cc1e	0.043651693
220	0x3e21c79f	0.15798806
221	0x3cdfe306	0.027329933
222	0xbd475524	-0.04866518
223	0xbd573a8a	-0.05254606
224	0x3d470c10	0.048595488
225	0xbc6fab3b	-0.014628227
226	0x3cb44c21	0.022008957
227	0x3bee8afe	0.0072797528
228	0xbd3fa2e4	-0.046786204
229	0x3c411a31	0.01178603
230	0x3d589dce	0.05288487
231	0x3c56dc0e	0.013113989
232	0xbce784cd	-0.028261567
233	0x3bf963ea	0.0076107876
234	0x3c2b7ad8	0.0104663
235	0xbc2b4a63	-0.010454747
236	0x3e049a9b	0.12949602
237	0x3c999f06	0.018752586
238	0xbda11b99	-0.07866592
239	0xbce1f992	-0.027584825
240	0xbc817b90	-0.01580599
241	0x3d2f7edd	0.042845596
242	0xbb353fe0	-0.002765648
243	0x3dc0f8e7	0.09422474
244	0xbd8b5154	-0.068026215
245	0xbc19f698	-0.009397171
246	0x3c137501	0.009000064
247	0xbd444d08	-0.047925025
248	0xbcc52b15	-0.024068395
249	0xbd3b3a5c	-0.045709953
250	0x3b4debc6	0.003142105
251	0xbd1025fe	-0.035192482
252	0x3d28c247	0.041200902
253	0x3d511a56	0.051050507
254	0xbd7f7fe1	-0.062377814
255	0xbd97d0f7	-0.07412904

fc1.bias f4 [50]
0	0x3d73e704	0.059546486
1	0x3d647f98	0.055785745
2	0xbbe12630	-0.0068710074
3	0xbc2c5187	-0.0105174845
4	0x3c00e33c	0.007866677
5	0xbbd688be	-0.0065470627
6	0x3d66d826	0.05635848
7	0x3cf447b9	0.029819356
8	0xbc6a272d	-0.014291567
9	0xba74952d	-0.000933009
10	0x3d4569f0	0.048196733
11	0xbcabc905	-0.020969877
12	0x3dd7866c	0.10523686
13	0x3d01bd42	0.03167463
14	0x3d972b6a	0.073813275
15	0xbcceeb9f	-0.025258837
16	0x3bc94caf	0.0061431746
17	0x3da0653b	0.07831808
18	0x3d5da35a	0.054110862
19	0x3ddc6abe	0.10762547
20	0x3db25edd	0.087095
21	0x3cca35a9	0.02468379
22	0x3ce00596	0.027346414
23	0x3d147711	0.036246363
24	0xbcb8435f	-0.022493063
25	0x3cd93c31	0.02651796
26	0x3c747692	0.0149208475
27	0x3d85c8fb	0.065324746
28	0x3cc87d4c	0.024473809
29	0xbd2e7bfa	-0.042598702
30	0xbc8cd912	-0.017193351
31	0x3d3265fd	0.043554295
32	0xbb1090e9	-0.002205903
33	0xbbea1f92	-0.0071448768
34	0x3d8507e5	0.064956464
35	0x3d3ab1db	0.045579772
36	0xbb5a1343	-0.003327564
37	0x3dbe49ce	0.09291421
38	0x3d7e1eda	0.06204114
39	0xbd49beda	-0.049254276
40	0x3d46bfc4	0.048522726
41	0x3c631e3f	0.013862192
42	0xbd855b8a	-0.065116
43	0x3cba434d	0.02273717
44	0x3d9bcf36	0.07607882
45	0x3cc0e209	0.023545282
46	0x3dc034b8	0.09385055
47	0x3c933a88	0.017972246
48	0xbc0dc590	-0.00865306
49	0x3b467763	0.0030283562

fc2.weight f4 [10, 50]
0	0xbe99bd40	-0.300272
1	0xbe5f56ec	-0.21810502
2	0xbe3db5cd	-0.18526383
3	0xbe50151d	-0.20320554
4	0xbddaedf6	-0.10689919
5	0x3d2debd0	0.042461216
6	0xbd5fc077	-0.05462691
7	0xbe2c315a	-0.16815701
8	0x3e0eb53a	0.1393632
9	0x3e4bc5f2	0.19899729
10	0x3d026150	0.031831086
11	0xbdcd5484	-0.10025886
12	0x3e6b91a1	0.23004772
13	0x3e963219	0.29335096
14	0x3e380bd3	0.1797326
15	0xbdfc3c02	-0.12316133
16	0x3e51e9f8	0.20499408
17	0xbe83bfcd	-0.2573227
18	0xbe106e66	-0.14104614
19	0xbe5c6ca9	-0.21525826
20	0xbe54a867	-0.20767365
21	0xbe7b582b	-0.24545352
22	0xbe3c783f	-0.18405245
23	0xbe8b788c	-0.27240407
24	0x3e2ccdee	0.16875431
25	0x3cdae61d	0.026721055
26	0xbdca63de	-0.098823294
27	0xbe00d693	-0.12581854
28	0x3e3f6965	0.18692549
29	0xbc38782a	-0.011259118
30	0xbe1694fd	-0.14705272
31	0x3e4a4056	0.19751105
32	0x3e24bf9b	0.16088717
33	0x3af5e6b4	0.0018760771
34	0xbda696d6	-0.081342384
35	0xbe474dcd	-0.19463272
36	0xbe298ac4	-0.16556841
37	0xbe461d92	-0.19347218
38	0x3dbf1bb4	0.09331456
39	0xbe0df6ad	-0.1386363
40	0x3e2becad	0.16789503
41	0x3e7b8250	0.24561429
42	0xbd8deffa	-0.069305375
43	0xbe1811cb	-0.14850537
44	0x3e105afc	0.14097208
45	0x3cfda2c5	0.030961404
46	0x3e6c2335	0.23060305
47	0x3e868509	0.26273373
48	0xbe612472	-0.21986559
49	0x3e19be99	0.15014113
50	0x3dbe15d3	0.092815064
51	0x3e14efca	0.14544597
52	0xbe6424c6	-0.22279653
53	0x3e28f426	0.16499385
54	0xbde1b645	-0.11021093
55	0xbe233463	-0.15937953
56	0x3d8f9466	0.07010727
57	0x3dfc3685	0.12315086
58	0xbe7aba5a	-0.2448515
59	0xbb3d5838	-0.0028891694
60	0x3e8db1a9	0.27674606
61	0xbe7a42c5	-0.24439533
62	0x3e343827	0.17599545
63	0xbdaf8855	-0.08570925
64	0xbe82beac	-0.25536096
65	0x3d64b3a6	0.05583539
66	0xbe3f998c	-0.18710917
67	0x3e4709f3	0.19437389
68	0x3e3ee0dd	0.18640466
69	0x3e5ac4c8	0.21364129
70	0x3e3d0618	0.18459356
71	0xbe79189b	-0.24325792
72	0xbea0fde2	-0.31443697
73	0x3e61ea6c	0.22062081
74	0xbd2bfabf	-0.041987177
75	0x3ebcc4d0	0.36868906
76	0x3e72b213	0.23700742
77	0x3dde624d	0.10858593
78	0xbe48537b	-0.19563095
79	0xbe3c6504	-0.1839791
80	0x3e13404c	0.14379996
81	0xbdf93170	-0.121676326
82	0xbe26630e	-0.16248724
83	0xbe3cc909	-0.18436064
84	0xbda3b508	-0.07993513
85	0x3e4e0d1c	0.20122188
86	0x3c313e4b	0.010818074
87	0x3e6176ba	0.22017947
88	0x3da5711b	0.08078214
89	0xbe6223d5	-0.22083981
90	0x3e3f47b2	0.18679693
91	0xbdf926f5	-0.121656336
92	0xbde033a4	-0.1094735
93	0x3e5aafd5	0.21356137
94	0xbe50e6fb	-0.20400612
95	0x3dc6f91d	0.09715483
96	0x3e113030	0.14178538
97	0xbd928440	-0.07154131
98	0xbda45dcf	-0.08025705
99	0xbe59e191	-0.21277453
100	0xbe3d6948	-0.18497193
101	0x3dbd729a	0.09250374
102	0x3e248b31	0.16068722
103	0x3e0bc845	0.13650616
104	0x3e2e54a7	0.1702448
105	0x3dbd8c30	0.09255254
106	0x3e3fa7f0	0.18716407
107	0x3e3b0ee1	0.18267395
108	0x3ddd0248	0.10791451
109	0x3e21d093	0.15802221
110	0x3d50e6ba	0.051001288
111	0x3e1d5c24	0.1536718
112	0x3e1822e5	0.14857061
113	0xbddccc2e	-0.10781132
114	0xbdb3f003	-0.08786013
115	0xbe1b501c	-0.15167278
116	0xbe167bee	-0.14695713
117	0x3e2ce8e6	0.16885719
118	0xbe00e8e2	-0.12588838
119	0xbe96c6d0	-0.29448557
120	0xbe0cf833	-0.13766555
121	0xbdfd4b46	-0.12367873
122	0xbe387821	-0.18014576
123	0x3e699058	0.22808969
124	0xbd8fbeee	-0.07018839
125	0x3d952acf	0.07283556
126	0xbdaf56b7	-0.085614614
127	0xbe5d89a3	-0.21634535
128	0xbd31c378	-0.043399304
129	0xbdc2b2bd	-0.09506748
130	0x3e489402	0.1958771
131	0x3de77b2a	0.113027886
132	0xbdc678ec	-0.09691033
133	0xbe5126b6	-0.20424923
134	0x3e49f36b	0.19721763
135	0xbdf57534	-0.11985245
136	0x3e388317	0.18018757
137	0x3e56dab4	0.20981866
138	0xbe4eb59f	-0.2018647
139	0xbcb7c222	-0.022431437
140	0xbdc3104f	-0.09524595
141	0x3e5e5c80	0.21714973
142	0x3e3cc2be	0.18433663
143	0xbd4e011b	-0.050294023
144	0xbdc4d0c1	-0.09610129
145	0x3dac8c5b	0.08425208
146	0x3e1d8004	0.15380865
147	0x3e4f5538	0.20247352
148	0x3e0a865a	0.13527814
149	0x3d4a0542	0.04932142
150	0x3e1eb227	0.15497647
151	0xbe10f9ec	-0.14157838
152	0x3e0911c3	0.13385682
153	0x3e10cfc1	0.14141752
154	0xbd0efc19	-0.034908388
155	0x3db622a1	0.08893324
156	0xbe320bcf	-0.17387317
157	0x3e4aebba	0.19816485
158	0xbe10821b	-0.14112131
159	0xbdfc56a3	-0.12321212
160	0xbd313737	-0.043265548
161	0xbdde3128	-0.108492196
162	0xbe621a62	-0.22080377
163	0xbdafdbb4	-0.08586827
164	0xbd8893e1	-0.06668831
165	0x3e3a01a9	0.18164696
166	0xbd97b3bc	-0.074073285
167	0x3e2f10a8	0.17096198
168	0x3e26511d	0.1624188
169	0xbe177610	-0.14791131
170	0xbe46d829	-0.19418396
171	0xbe20cd15	-0.15703233
172	0x3e174cf6	0.14775452
173	0xbb6a8c1e	-0.0035789083
174	0x3e41e3dd	0.18934579
175	0xbe44c51e	-0.19215819
176	0xbe5374df	-0.20650052
177	0x3e3b1403	0.18269353
178	0xbda40257	-0.08008259
179	0x3e24070a	0.1601831
180	0x3e382f7e	0.17986867
181	0x3e41429e	0.18873069
182	0x3e365caa	0.17808786
183	0xbd644808	-0.055732757
184	0xbe3c3c66	-0.18382415
185	0xbe4d046d	-0.2002122
186	0x3e4d6847	0.2005931
187	0x3e6e2824	0.232575
188	0xbe24afe0	-0.16082716
189	0x3e79e10e	0.24402258
190	0xbdaad11c	-0.08340666
191	0xbd2bf225	-0.041978974
192	0xbd8dc4c1	-0.069222935
193	0xbd19512c	-0.037430927
194	0xbc215af6	-0.009848347
195	0x3dff2d87	0.124598555
196	0xbd81fe5e	-0.06347345
197	0xbd9d3a41	-0.07677127
198	0x3e0bab93	0.13639669
199	0x3dfed585	0.12443069
200	0x3e318318	0.17335165
201	0x3df8bf40	0.12145853
202	0x3e2dd3e5	0.16975363
203	0xbe0c352f	-0.13692163
204	0x3e001a2e	0.12509987
205	0xbeac8bef	-0.3370051
206	0x3e6f34fb	0.23360054
207	0x3dba5904	0.0909901
208	0x3dedbffe	0.11608885
209	0xbd4a89c9	-0.04944781
210	0x3e9a9878	0.3019445
211	0x3e90cd38	0.2828157
212	0xbe2ec47a	-0.17067137
213	0xbd646f0f	-0.055769976
214	0xbe1bbdf4	-0.1520918
215	0xbe60983a	-0.2193307
216	0xbe8466aa	-0.25859576
217	0xbe37d271	-0.17951371
218	0x3e890d0f	0.26767775
219	0x3d899831	0.06718481
220	0x3e49f6e5	0.19723089
221	0x3e885b77	0.26632282
222	0x3d3f9fde	0.04678332
223	0xbd698b1b	-0.057017427
224	0xbe03806b	-0.12841956
225	0x3c6ab40f	0.014325156
226	0xbd58175a	-0.052756645
227	0x3e40fc5e	0.1884627
228	0xbe7b142a	-0.2451941
229	0xbe51b0d1	-0.20477606
230	0xbdf71781	-0.1206503
231	0xbe89dc69	-0.26925972
232	0xbdc2360e	-0.09482966
233	0x3e975e3f	0.29564092
234	0x3e9ed216	0.31019658
235	0x3e46ff81	0.19433405
236	0xbdebe6b2	-0.11518611
237	0xbd75ba15	-0.059991915
238	0xbdc0b91c	-0.09410307
239	0x3dc53e3f	0.09631013
240	0xbe33c9ab	-0.17557399
241	0x3dccfead	0.10009513
242	0xbd98aabc	-0.0745444
243	0xbda270e5	-0.07931689
244	0x3e86c5dd	0.26322833
245	0xbd17d4a8	-0.03706804
246	0x3d7ed02e	0.062210254
247	0x3d61b737	0.055106368
248	0xbe205884	-0.15658766
249	0xbe882749	-0.26592472
250	0x3e18768a	0.14888969
251	0x3e011f13	0.1260951
252	0xbe1f9183	-0.15582852
253	0xbe661d0a	-0.22472015
254	0x3e34f99c	0.17673343
255	0xbe91c623	-0.2847148

fc2.bias f4 [10]
0	0x3e30f585	0.17281158
1	0x3e85f1f2	0.26161152
2	0xbe20421e	-0.15650222
3	0xbe5adccf	-0.21373294
4	0xbd002626	-0.03128638
5	0xbdfdfcef	-0.12401759
6	0xbd8eeca3	-0.069787286
7	0x3c0eee64	0.008723829
8	0x3e92881a	0.28619462
9	0xbd7d0fc8	-0.06178263
