hw4_self-attention/model.ckpt (torch, 509167 bytes, 18 tensors)

prenet.weight f4 [80, 40]
000000 be 10 c2 bd 9f 01 45 3e b0 a1 9e be e0 1f 80 3e
       -0.094758496 0.192389 -0.30982733 0.2502432
000010 77 2a af bc 16 ce 1a 3d ed 91 ac bd 8f dd 26 bd
       -0.021382554 0.037794195 -0.08426271 -0.04073864
000020 6f cb 7b bc c5 02 c0 3c fc b8 6b bd 8b e9 99 3c
       -0.015368327 0.02343882 -0.05754946 0.01878812
000030 fa af 65 3e 58 fe 90 3d 04 49 b1 bd 25 4a ff bd
       0.22430411 0.07079762 -0.08656505 -0.12465314
000040 52 58 db bc 1b e0 d2 bc db bc 8b bd 6b 71 bf 3d
       -0.026775513 -0.025741627 -0.06823131 0.09347805
000050 b4 79 07 bd 6b 6b 53 bc ad 64 52 3d 6e 81 97 bd
       -0.03307505 -0.012904028 0.051365543 -0.07397734
000060 9a 1e d1 bd b6 90 0d be 5f f3 d5 3d cf 40 88 3d
       -0.10210915 -0.13824734 0.1044681 0.06652986
000070 45 ad 66 3d 08 24 3e 3e b6 7e 95 3d ef b4 3f be
       0.056317586 0.18568432 0.07299559 -0.18721364
000080 16 b7 00 3d 31 70 5c 3c b9 45 02 3e 22 7a 34 be
       0.031424604 0.013454483 0.1272191 -0.17624715
000090 cd b9 51 bc ef 17 8b bd 7b 56 f6 3d 41 a3 7d 3d
       -0.012800646 -0.06791674 0.120282136 0.06192327
0000a0 8e 87 1b be ab ae e3 3d 19 a8 13 3d ae b8 39 3e
       -0.15188429 0.111173 0.036048982 0.18136856
0000b0 3b bb 5c 3d 7b ca 0c 3b b4 94 d8 3d 34 87 6a 3d
       0.053889494 0.0021482992 0.10575238 0.057257846
0000c0 67 7f 9a be 35 7e 75 bd 4b 2f 96 3c be 27 ab 3c
       -0.30175325 -0.059934814 0.018333098 0.020892974
0000d0 14 99 cc 3d 40 02 ae bc 9c 0f 35 3d ac af bf 3d
       0.09990135 -0.021241307 0.04420434 0.093596786
0000e0 54 77 0b 3e 4f 8f 9b 3d 94 d4 ac 3d 3f 21 a3 bd
       0.13619739 0.07595693 0.084389836 -0.079653256
0000f0 e4 85 00 be c1 71 f6 3d 2e b9 fd bc 88 05 25 be
       -0.12551075 0.120334156 -0.03097209 -0.16115391
000100 15 b6 1e be b7 30 0e 3d 83 ae 87 3c 4c 94 ce 3d
       -0.15499146 0.034714427 0.016562706 0.10086879
000110 5f 0c 23 be ee bf 0b 3e aa dc 9d bd ef 3d 64 3b
       -0.15922688 0.13647434 -0.07708104 0.0034826954
000120 47 e2 41 3e 25 6a 80 ba e8 06 1e be e8 65 95 3d
       0.18933974 -0.0009797259 -0.15432322 0.07294828
000130 13 bb af 3c e8 38 8d bd 04 15 ff bd 48 60 1b 3e
       0.021451509 -0.0689562 -0.1245518 0.15173447
000140 db 02 3f 3e 2f ff 7a 3e dc 49 0a 3e cf 26 05 bd
       0.18653433 0.24511407 0.13504738 -0.032507714
000150 ef a8 31 be ed f0 81 bd 96 13 1f be de 1d 06 bd
       -0.173496 -0.06344781 -0.15534815 -0.032743327
000160 f2 f5 ec bd fc ea ad 3d c8 3e 82 3e 33 11 a9 3c
       -0.11570348 0.08492085 0.25438523 0.020638084
000170 c9 1c 58 be 72 eb 60 bd bf d7 44 be b4 4b 03 3d
       -0.2110473 -0.05491204 -0.19222926 0.032054618
000180 98 17 1b 3d 3a 61 c0 3d 2a aa f9 3c ce 9d db 3d
       0.037864298 0.093935445 0.030476648 0.10723458
000190 50 6e 53 3e 72 09 f2 bc fc 57 d7 bc d5 71 a7 bd
       0.2064755 -0.02954552 -0.026287071 -0.081760086
0001a0 2d 78 63 be 8e 85 40 3d eb 1e 74 3e 61 49 16 bb
       -0.22213812 0.047002368 0.2383992 -0.002293192
0001b0 a6 40 a1 bd 90 8a 5c 3d 2a 6c 20 3d 06 6c c7 bc
       -0.07873659 0.05384308 0.039165653 -0.024343502
0001c0 48 70 db bd 6d 99 3b bd 12 89 89 3d 9c 3c f6 bc
       -0.10714775 -0.045800615 0.06715597 -0.030058198
0001d0 9f 7b 2b 3e d1 d6 be bd e4 e9 27 3b 99 06 e2 3d
       0.16746376 -0.09318317 0.0025621587 0.11036415
0001e0 b5 50 18 be 7d 60 fd 3e 86 f7 eb bd cd c5 2c be
       -0.14874537 0.49487677 -0.11521821 -0.1687233
0001f0 10 c0 21 3c 8b 08 d1 3d d8 f1 0a 3d 77 f2 25 be
       0.009872451 0.102067076 0.033922046 -0.16205774
000200 54 c2 79 be b2 df 53 be 1a 47 53 bd d5 64 ff bc
       -0.24390537 -0.20690802 -0.05158148 -0.03117601
000210 fa b4 6e 3e f3 71 b6 3c 6c 83 f0 3d 1a 96 89 3c
       0.23311225 0.022271132 0.11743817 0.016795207
000220 51 c3 dd 3d 73 0b c6 3d af 19 24 bc 73 6c 9e bc
       0.10828269 0.096701525 -0.010015889 -0.019338822
000230 58 6f 3d be 9f e3 8b bd 31 85 96 3c 32 5a db 3d
       -0.18499506 -0.06830525 0.018374057 0.10710563
000240 5f fa 24 3e 2d 42 3a 3e fa 0e b5 bd ef 85 af 3c
       0.16111134 0.18189307 -0.08840747 0.02142617
000250 69 c0 80 3c 62 b2 b9 ba 89 1c 6f 3b 5b 7f da bd
       0.015716748 -0.0014167542 0.0036485514 -0.106688224
000260 18 2c 38 be ad aa 0e 3d 19 08 6a 3d 52 4c a2 3d
       -0.1798557 0.034830738 0.05713663 0.07924713
000270 bf 4d b9 bc 6f 9a 65 be 5a 5d 47 bc 1b 02 94 bc
       -0.02262008 -0.22422193 -0.012168253 -0.01806741
000280 3b 20 bd 3d e9 37 3b 3e b3 25 ac b9 84 82 99 be
       0.09234663 0.18283047 -0.00032834485 -0.29982388
000290 0c 2f 50 be 0c e4 19 3e 91 3f 1f 3e 8e 23 bd bc
       -0.20330447 0.15028399 0.15551592 -0.023088243
0002a0 c1 4a db bc 7c c8 71 3d cc 4d b4 bc 24 50 be 3d
       -0.026769044 0.059029087 -0.022009753 0.09292629
0002b0 00 d9 30 3e 29 e3 cf 3d 94 f3 44 3c 07 92 c2 bd
       0.17270279 0.10150749 0.012020964 -0.09500509
0002c0 9a 9b 23 be a6 7e cc 3d 28 4f 12 3e b9 fe 5a 3c
       -0.15977326 0.09985094 0.14288008 0.013366395
0002d0 cd 4d 9b bd dd d3 42 be b4 6e 0c be b1 47 aa 3d
       -0.07583199 -0.19026132 -0.13714105 0.08314455
0002e0 01 9d 81 bd 43 47 d3 bd 9b 9c 1c be c9 95 d0 bd
       -0.06328774 -0.103163265 -0.15294115 -0.10184819
0002f0 77 20 46 bb 54 4c 45 bc 34 7f ae 3d ff 45 11 3e
       -0.0030231753 -0.012042124 0.08520356 0.14186858
000300 f3 75 d1 3d d9 65 bd 3d f9 07 0e 3d ef 89 a3 bd
       0.10227575 0.092479415 0.034675572 -0.07985293
000310 d6 b3 12 be 0d 62 e0 3d 31 72 60 3e 71 3b 26 3a
       -0.14326414 0.10956202 0.2191856 0.0006341255
000320 45 0f 51 3d 8c 3a 1d be 2b ce f7 bc e6 4f ff 3d
       0.051039953 -0.15354365 -0.030249676 0.12466411
000330 89 a3 ab 3d b3 45 f9 3d d2 3e 9e bd 0e f8 67 3c
       0.08380801 0.12171497 -0.07726826 0.014158262
000340 f3 c6 97 bd 30 74 ed 3b 18 4a 12 bd 41 bf d2 3c
       -0.074109934 0.0072465166 -0.035715193 0.025725963
000350 52 b1 ca bc 9c f2 33 be 62 1c 26 be 87 1d 1d 3d
       -0.024742756 -0.17573017 -0.16221765 0.038358238
000360 53 82 af 3d 32 c5 cc 3d c6 a7 08 3e f6 29 c8 3d
       0.08569779 0.099985495 0.1334525 0.097736284
000370 9a 16 02 be 69 87 cd bd 2b b2 11 3c f1 64 bd 39
       -0.12703934 -0.10035593 0.008892576 0.00036124096
000380 a0 0e 22 be 52 a0 f0 3d f7 f0 d1 3d 2a 94 09 be
       -0.15825891 0.11749329 0.102510385 -0.13435426
000390 5e c1 e1 bc 4c 3a b4 3e e4 bc 5b 3e 10 a9 9e be
       -0.027558025 0.35200727 0.21458775 -0.3098836
0003a0 7a f2 97 be 29 4e 6d bb df 8f 46 bd 9a c7 bc 3c
       -0.29677182 -0.0036209917 -0.04847705 0.023044396
0003b0 00 4f 47 be 52 8f 84 bd 6d 26 a3 3d 04 18 8b 3e
       -0.1946373 -0.06472649 0.079663135 0.2716676
0003c0 5a 3e f0 3d e0 2d 23 3e 45 4c 68 3d be 98 9b be
       0.117306426 0.15935469 0.05671336 -0.3038997
0003d0 ea 4a 05 bd d1 5c d4 3d f2 6a b9 bd 7b ef c2 3b
       -0.032542147 0.10369266 -0.09053601 0.0059489585
0003e0 3e b5 97 3c 15 a2 f6 bd b9 e3 e5 bd d0 b4 4f bd
       0.01851904 -0.120426334 -0.11225075 -0.050709546
0003f0 37 e7 6b bd 95 9e 99 3d 4e 17 b3 3c 86 a8 e7 3d
       -0.05759355 0.0750095 0.021861698 0.1131144

prenet.bias f4 [80]
000000 18 c1 4f 3f a0 a5 a6 bd 82 dc 50 3f 2f f4 99 be
       0.8115401 -0.08137059 0.8158647 -0.3006911
000010 9f 4b 35 3f 0b 15 01 bf 4d 53 c2 3c 7e f5 6e 3e
       0.70818514 -0.50422734 0.023721362 0.23335835
000020 b5 6e c8 3e ca 9c 94 3e d4 7a 09 bf 5d d5 5c 3e
       0.39146963 0.2902587 -0.53703046 0.21565767
000030 58 50 fd be 2b 8d c6 3e 14 dd 25 be 52 c1 a6 be
       -0.4947536 0.38779578 -0.16197616 -0.32569367
000040 9f 48 19 bd bf 88 c9 3c f9 ac 79 bd 08 42 06 bf
       -0.037422772 0.024601338 -0.060955975 -0.52444506
000050 e0 c9 70 3e a2 43 0a bf 40 53 58 3e 6c 0a fe bd
       0.23514509 -0.5400945 0.21125507 -0.124043316
000060 49 5b ee bd 22 6b f2 3e c9 75 42 3e fe 89 21 3f
       -0.11638505 0.4734736 0.18990244 0.63101184
000070 c9 d5 cc bc 62 24 bc be 3e 5b 70 be 3f fa 91 3e
       -0.025004284 -0.36746508 -0.23472306 0.28511235
000080 5b e5 80 3d d2 8b 2c 3f a5 81 a0 3e bc 30 14 3f
       0.06293746 0.6740085 0.3134891 0.5788686
000090 09 83 9c 3d a3 84 11 3e 83 c2 07 bf 35 fb 59 bf
       0.076421805 0.14210753 -0.53031176 -0.85148937
0000a0 fb 59 05 be bc a2 07 bd ef 5d ba be bd b8 68 bd
       -0.13022606 -0.03311418 -0.3639979 -0.056816805
0000b0 fc 0d e7 be 74 17 03 3d 0b 2c 3d be cb c8 2c 3f
       -0.45127857 0.03200479 -0.18473832 0.67493886
0000c0 12 43 6b 3e 95 72 5a 3d 67 a0 18 be 9a 39 e4 be
       0.22974804 0.05333193 -0.14904939 -0.44575197
0000d0 08 c8 41 be 4c 0c 82 be 37 a2 1f be 71 8c 89 be
       -0.18923962 -0.25400007 -0.15589224 -0.2686496
0000e0 17 df ec 3e 5f 0f 97 3e 29 ef df 3d e4 1e 25 3e
       0.46263954 0.29503915 0.10934288 0.16125065
0000f0 60 69 14 be 4a c3 5b be 09 13 5b be e0 47 b0 be
       -0.14493322 -0.21461216 -0.2139398 -0.34429836
000100 9d ac 0e bf 19 98 bd be e7 8c 85 be 68 1a 85 be
       -0.55732137 -0.37030104 -0.26084062 -0.2599671
000110 f5 92 f9 3d ca e3 3e bf 9a c4 a6 be f0 a2 a7 bd
       0.12186233 -0.7456633 -0.3257187 -0.08185375
000120 02 d5 7f 3c b5 97 26 bf 0b 0d b8 3e ba 84 38 bf
       0.01561475 -0.65075237 0.3594745 -0.72077525
000130 a4 dd 41 3e f8 fe 88 bd 41 72 e6 3e ef 0d 3e be
       0.18932205 -0.066892564 0.45009044 -0.18560003

encoder_layer.self_attn.in_proj_weight f4 [240, 80]
000000 e9 de 8d bc 84 6e 04 3d e0 b0 86 3d a5 ca 22 bc
       -0.017318206 0.03233196 0.06576705 -0.0099360095
000010 c1 cd 9d 3d a4 1d c3 3b 53 64 8c bd 6e b4 46 3d
       0.0770526 0.005954461 -0.06855073 0.048511915
000020 af c8 69 3c b9 fe 01 3e 8b ea f7 bc 1c d8 d0 bc
       0.014269038 0.12694825 -0.030263206 -0.025493674
000030 15 5c 5f 3d 1e ba 88 bd 26 74 8e 3d 82 ff cc 3c
       0.054531176 -0.06676124 0.06955747 0.02502418
000040 15 81 2e bd d2 84 97 3c fc ec 76 bd 14 4b ef bc
       -0.04260357 0.01849595 -0.0602846 -0.029210605
000050 dd d0 b6 3b a4 ee 4f 3d d9 08 21 bc d9 1b 2a 3c
       0.0055790977 0.050764695 -0.00982877 0.010382616
000060 19 00 1b 3b df 34 8b bd a7 7f 6f bd 60 7a d3 bb
       0.0023651181 -0.06797194 -0.058471348 -0.006453797
000070 b2 db 02 bd 83 5d e2 3c 96 c0 aa bc f2 1e 2f 3d
       -0.0319478 0.02763248 -0.020843785 0.04275412
000080 b0 04 94 bb 3a a1 3c bb 07 ed 4a bd 96 55 53 bd
       -0.0045171604 -0.0028782622 -0.049542453 -0.051595293
000090 27 f1 bd bd 5d 09 9f bc 99 04 3b bd c8 aa 30 3d
       -0.09274512 -0.019413644 -0.04565868 0.04313162
0000a0 8e 83 bf 3d ef ae cc ba 8e 1f 17 be 26 ef 0c b9
       0.09351264 -0.0015616099 -0.14758131 -0.0001344053
0000b0 d3 ea 8e bb c1 45 2e 3d 95 29 dc 3c 1c d1 8e bc
       -0.0043614893 0.04254699 0.026875297 -0.017433695
0000c0 0d 40 3b bd d5 b9 2c bb 8d 10 06 bd 22 12 f2 3c
       -0.04571538 -0.0026355882 -0.032730628 0.029549662
0000d0 7d 95 41 bc 22 68 9d 3b b6 60 fa bc 75 b5 df bc
       -0.011815426 0.0048036734 -0.030563693 -0.027308205
0000e0 79 1e fc 3d c8 b3 83 3c 30 03 87 3d fb 9a ba 3c
       0.123105 0.016076937 0.06592405 0.022778979
0000f0 1f 66 be 3d ed ba 17 be b9 41 ae 3c 91 93 e9 3d
       0.09296822 -0.148174 0.021271573 0.11405099
000100 41 fb 37 bd e0 e3 08 be ab a6 cf bd 3e c2 39 3d
       -0.04491735 -0.13368177 -0.10139211 0.04535126
000110 b7 40 4d bd ab 04 04 3d 06 2d 6d bd b0 bc 03 bd
       -0.050110545 0.032231014 -0.057904266 -0.03216237
000120 9b 7d 82 3d da 33 27 3e 79 ef 93 bd 1e 52 cf bd
       0.063716136 0.16328374 -0.0722341 -0.101230845
000130 26 79 d6 bd 27 f7 4f bd 1d f9 fc 3d c3 5d 02 3e
       -0.10472326 -0.050772812 0.12352202 0.1273108
000140 7a 95 ed bc cc fb 11 bd a2 2c f7 3c d7 e4 be 3d
       -0.02900194 -0.035640523 0.03017265 0.093209915
000150 5d 3e e9 bb 88 2f 0f bd 6d 7e 52 bc 2f 40 18 bd
       -0.00711803 -0.03495744 -0.012847525 -0.037170585
000160 6f 97 19 3b fc eb 4d be 07 7b a6 3d 9c 79 74 be
       0.0023436209 -0.20109552 0.08128934 -0.23874515
000170 3c c7 8b bd 7a 7d a4 3d 60 c1 8f 3d 70 8b 5e 3d
       -0.0682511 0.08031745 0.07019305 0.054332197
000180 42 62 87 bd ca 57 cd 3c 92 f0 4b 3e d7 d4 96 3c
       -0.06610538 0.025066275 0.19915989 0.018412037
000190 2b b9 28 3c 63 ee ce 3d 68 3b 76 3d 84 91 60 3d
       0.010298054 0.101040624 0.060115248 0.054826275
0001a0 88 46 09 3c a6 e2 9f bc dd da 92 3c 95 d2 ba 3d
       0.008378632 -0.019517254 0.017926628 0.091221966
0001b0 eb c9 61 3d c6 f2 e3 bd 42 24 f4 3d ce 12 89 bb
       0.055124205 -0.1113029 0.11920978 -0.00418315
0001c0 8d 52 6c 3d 42 bd 5b bc 8d 0f f3 bb 07 49 1d 3e
       0.057695914 -0.013411822 -0.0074176253 0.15359889
0001d0 cb 9b e5 3c 49 1b 95 3c 0a 81 ce 3d ca df 31 bd
       0.02802839 0.018201487 0.10083206 -0.043426313
0001e0 79 e3 65 bd d7 41 3f 3d 35 c3 fe 3d ca 7f b6 bd
       -0.056125138 0.04669365 0.124395765 -0.089110926
0001f0 07 58 4c bc cf da f2 bd cb 54 c0 bd 03 a0 09 bd
       -0.012472159 -0.11858141 -0.09391173 -0.033599865
000200 ed 3a 94 3d 93 40 5c bd 82 10 b6 3d 1b 0a 9d 3c
       0.07237802 -0.05377252 0.08889867 0.019169858
000210 b6 00 c6 bd 4e 7e 5c bd e4 73 2b 3d d8 e7 f1 3c
       -0.09668104 -0.05383139 0.04185857 0.029529497
000220 81 60 d1 bc 4f 4d 01 3d c0 51 a8 bd ac ee a0 3b
       -0.025558712 0.031567868 -0.082187176 0.0049112644
000230 a7 43 41 be a7 05 71 3e bb b2 38 3c 6a 73 7e bd
       -0.18873464 0.23537312 0.011273081 -0.062121786
000240 20 10 3f bc 7a b3 4a 3d d0 af b6 3d a1 3a 72 3d
       -0.011661559 0.04948757 0.08920252 0.059137944
000250 d2 73 05 3c ee f8 e5 3c 60 63 c1 bd 75 8c 8a bd
       0.0081452895 0.0280728 -0.094427824 -0.06765071
000260 81 b4 5c bb 26 49 53 3d 89 5f 2a 3e ca 11 f0 bc
       -0.0033676925 0.05158343 0.16638006 -0.029305357
000270 28 26 32 3e ac b3 4e 3d fc 43 88 bb 03 bc 16 be
       0.17397368 0.050464317 -0.004158495 -0.14720158
000280 ae a7 fb bd 11 1e 39 bd de a0 c0 3d 44 76 62 3d
       -0.12287842 -0.04519469 0.09405683 0.05528857
000290 ce 6a b3 b9 a7 4d 40 bd 71 af 1c 3e 0c cf 9f bd
       -0.00034221116 -0.046949055 0.153013 -0.07803163
0002a0 2a 42 34 3d a2 22 e5 bc f3 ac 0c 3e ca c1 da 3c
       0.04400841 -0.027970616 0.1373785 0.026703734
0002b0 cf eb ce bc 99 92 78 3d 42 2a 34 3d 6a 3e e4 3d
       -0.025258927 0.06068668 0.043985613 0.11144717
0002c0 8f cd 84 bb f6 d9 c7 3d bd 0c 46 bc 97 7a b0 bd
       -0.004052825 0.097583696 -0.012087998 -0.08617132
0002d0 f1 96 1e bd 90 8e 1a be 60 ed cc bd d8 36 02 3e
       -0.038718168 -0.15093446 -0.10006213 0.12716234
0002e0 a5 7e de bb f3 d9 40 3c 41 db db 3c 00 bc 4b bc
       -0.0067899995 0.011770713 0.026837947 -0.012434959
0002f0 8a a6 87 3d f5 8c 27 bd dd d9 f5 bd 2c 63 95 bc
       0.06623562 -0.04090591 -0.12004445 -0.018235765
000300 d2 a7 ca 3c 28 93 00 3d d8 ce 97 3d 0d d4 51 bc
       0.024738226 0.03139034 0.07412499 -0.0128069045
000310 4b 05 d6 bd 60 cb 95 bd 23 4f 31 bd e8 94 03 3d
       -0.10450228 -0.07314181 -0.04328836 0.03212443
000320 3c 7f 33 be 2e a8 fd 3d d8 27 a1 bd ed c0 66 3d
       -0.17529005 0.12385593 -0.07868928 0.056336332
000330 90 fd ce 3d aa 4b 02 3e ea ed 66 be a2 7d 69 bc
       0.10106957 0.12724176 -0.22551695 -0.014251145
000340 c8 93 c5 3c 20 cc b2 3d 2b 45 62 3d 28 a9 ae bc
       0.02411832 0.0873034 0.055241745 -0.021320894
000350 48 c3 19 3d 5b 2e 06 bd bf 43 da ba 71 6c 1e be
       0.03753975 -0.03275905 -0.001665227 -0.15471055
000360 82 f4 09 3e b3 a9 67 3d bf dc 3a 3e db 26 2f 3d
       0.13472179 0.056558322 0.1824827 0.042761665
000370 6d 77 a4 bc 6d b5 15 3e e4 81 c0 bd 42 73 ce 3c
       -0.020076478 0.1461999 -0.09399775 0.025201444
000380 8e 5f 74 3c 2f a9 fa 3d 33 49 d7 bc 26 24 f6 bd
       0.01491536 0.122393005 -0.026280021 -0.120186135
000390 b8 2a 98 bb d1 be 8e 3c bc 5b 4e be b3 2b 2d 3e
       -0.0046437643 0.017424973 -0.20152181 0.16911201
0003a0 f5 54 56 3d ab 95 f7 3a d8 be ed 3d 70 b2 31 3d
       0.052327115 0.0018889209 0.11608666 0.043383062
0003b0 f6 1b fe bd dd 40 fa bd 04 b0 a9 bd 97 60 49 bc
       -0.12407677 -0.12219403 -0.082855254 -0.012291095
0003c0 77 45 38 3e 82 45 97 bd 2c 04 a7 bd dd 16 8e 3d
       0.17995249 -0.073863044 -0.081550926 0.069379546
0003d0 b9 8f 36 3d 7e ef 4a bd dc 35 9a bd c8 78 1c 3c
       0.04457066 -0.049544804 -0.07529804 0.009550281
0003e0 ed c4 ce 3d 48 47 d6 3d 64 a9 5e bd bb b2 14 bd
       0.10096154 0.104628146 -0.054360762 -0.036303263
0003f0 48 70 77 bd 22 10 95 3d 6d 33 00 be b6 64 e3 bd
       -0.060409814 0.07278468 -0.12519617 -0.111031935

encoder_layer.self_attn.in_proj_bias f4 [240]
000000 63 65 3e 3d 2e e7 3a 3e 17 ee 1b 3d a4 21 bb 3e
       0.04648341 0.1825225 0.038068857 0.36549103
000010 8b 96 bc 3c 7d e1 b6 be 16 e1 fa 3c e7 9c a6 3e
       0.023021003 -0.3571891 0.030624907 0.32541582
000020 25 ea 48 3e a8 90 dd be b9 cd dd bc 58 5b 71 3e
       0.19620569 -0.43274426 -0.027075635 0.23570001
000030 a8 f1 b6 be 5b 7c 8b be 1a f3 ea 3d 96 f7 21 bd
       -0.35731244 -0.27243313 0.11472149 -0.039542757
000040 17 53 06 bf 26 91 fc 3d ea eb df bd 7c 60 13 bf
       -0.52470535 0.12332372 -0.10933669 -0.575691
000050 89 ed 28 bc 3d 4a 6b be 99 1f 6f bd 4f 28 cd bd
       -0.010310539 -0.22977538 -0.058379743 -0.10017454
000060 ea 03 e3 bd 33 a9 fa be a5 ce 0a bf fc 96 91 3e
       -0.11084731 -0.48957214 -0.54221565 0.28435504
000070 82 2a ca be 43 43 20 3c df a6 96 bd fd 0a 80 be
       -0.39485556 0.009781661 -0.07356047 -0.25008383
000080 98 d4 19 3e 9e 56 b1 bd e1 6f 8d 3e 32 b1 61 be
       0.15022504 -0.08659099 0.2762442 -0.22040251
000090 3d d1 66 3e 2e bb d5 be 5e 86 03 bf 5f 3f b0 be
       0.22540756 -0.4174437 -0.51376903 -0.34423348
0000a0 a3 44 d9 3d 8a 17 ce 3e 12 ba ac 3d 73 2e 96 bd
       0.106087945 0.40252334 0.084339276 -0.07333078
0000b0 cd 05 1c 3e 8f ce df bd a4 42 a4 3e e8 2f c2 3e
       0.15236588 -0.1092807 0.32082093 0.37927175
0000c0 28 c0 b7 3e b5 5b 1d 3e bf 8c d1 3e 9b 37 4f 3e
       0.3588879 0.15367015 0.40927693 0.20236056
0000d0 00 af 7d 3e fa 0c 30 3d d0 29 eb bd fc 7a f8 3c
       0.24773788 0.042981125 -0.114825845 0.030332081
0000e0 0a 2b 60 be 39 c2 06 3f 58 0d 0c be 74 6b 37 be
       -0.21891418 0.5264011 -0.13676965 -0.17912084
0000f0 91 15 56 be 44 2d 36 3d c0 f8 9a 3e 6c e3 2b 3e
       -0.20906664 0.044476762 0.30267906 0.16785973
000100 96 ae 10 3d 29 53 d7 3e a7 82 23 3f e8 19 9a be
       0.035322748 0.42055634 0.63871235 -0.3009789
000110 c9 31 02 3d a9 0b ab 3e cb 04 57 3e 68 ad 4f be
       0.03178576 0.33407333 0.20997922 -0.20280993
000120 19 31 a3 3e 9b ea 1f be bc f2 fc be e6 ee b8 3e
       0.31873396 -0.15616839 -0.49403942 0.36119765
000130 47 5f f1 bd 6e ed f5 bd ed 8c 06 bf 44 61 3d 3e
       -0.11785751 -0.12008177 -0.52558786 0.18494135
000140 b4 73 05 ba d5 9a 87 ba 10 d0 0a bc 0b 28 08 3c
       -0.00050907885 -0.0010345826 -0.0084724575 0.008310328
000150 09 a4 61 bc 97 3a 2b 3b 21 f9 c2 bb 33 67 02 3c
       -0.013772019 0.0026127452 -0.0059501086 0.007959175
000160 ec 57 76 bb 54 fc cb bc 4d 8e 00 bb 5d d2 03 3c
       -0.0037589027 -0.024900593 -0.0019616068 0.00804576
000170 bb 9b 4d bc 63 c2 14 bc b6 11 2c 3c 28 5d 8a 3b
       -0.012549336 -0.0090795485 0.0105022695 0.004222531
000180 9a 02 23 bc e9 9b 26 3c 89 7b 21 3c 52 2e f1 bc
       -0.009949351 0.010169008 0.009856113 -0.029441033
000190 4b 0c f3 3b 0d 1b ad 3b f1 7e 01 bc d7 e9 cd 3b
       0.007417237 0.0052827657 -0.0079038 0.0062839794
0001a0 51 83 93 3c 5b 8f 43 bc ff c6 e5 3b ca d4 59 ba
       0.018006952 -0.011936034 0.0070122476 -0.0008309601
0001b0 94 ed 94 ba 06 b6 34 bb dd 8b 08 3c 5d d9 09 3c
       -0.0011362308 -0.0027574315 0.008334127 0.00841364
0001c0 b3 67 aa ba 3a 97 cd 3c 08 33 7d bb bb 90 c1 3b
       -0.0013000875 0.025096525 -0.0038635153 0.005907146
0001d0 66 05 66 bb 1e 48 2d bc 0d c0 70 bc c3 3c ef 3b
       -0.0035098433 -0.010576276 -0.014694226 0.0073009445
0001e0 fb 52 1a bb d6 9e f4 bb 77 7a 88 bc e6 a6 10 bc
       -0.0023547995 -0.007465224 -0.016659958 -0.008828854
0001f0 27 41 e3 ba 9b 4b 0c 3b 26 03 26 3b e7 c4 e8 bb
       -0.0017338142 0.002140737 0.0025331466 -0.0071035507
000200 b0 0a 9c 3c 30 21 6b 3c dd ed 76 3c 25 85 8f 3c
       0.019048065 0.014351174 0.015071359 0.017519543
000210 3e f3 0d 3c 80 a5 1c 3c 29 4b 6a bb 35 2d e9 ba
       0.0086639505 0.009560943 -0.0035750365 -0.0017789962
000220 61 25 83 ba 80 fd 95 3c bc 9a 6e bb 27 d5 0f bc
       -0.0010005647 0.018309355 -0.0036408147 -0.008778847
000230 87 65 13 3c 28 df 04 bb a3 b6 52 3c 38 ab 86 bb
       0.008996374 -0.0020274613 0.012860927 -0.0041097663
000240 1f b5 66 bc 79 66 17 bb 80 82 a2 bb c7 08 91 3b
       -0.014081269 -0.002310185 -0.0049594045 0.004426095
000250 3f a4 b7 3b 48 e1 e5 3a 29 ec 00 bc 1d f3 03 3d
       0.0056042965 0.0017538453 -0.007868805 0.032214273
000260 61 6f b3 3a a9 9e 9e 3b 9d 63 41 bc d3 08 89 bb
       0.001368981 0.004840691 -0.011803535 -0.00418196
000270 8c ad dc 3b 10 f0 22 bc dd e2 f3 bb b8 b1 0f bb
       0.0067345556 -0.009944931 -0.0074428157 -0.0021925997
000280 7b 42 53 bd 6e 43 3c be c9 06 89 bd 40 55 4b be
       -0.051577073 -0.18385097 -0.06690747 -0.19856739
000290 30 50 16 3e f7 00 dd 3d 7f 95 cd bd bb 98 fd 3e
       0.14679027 0.107912 -0.1003828 0.49530587
0002a0 0b b1 c2 3c 3d 32 fd 3b aa f1 0a 3d 96 ce a6 be
       0.023766061 0.007726936 0.033921875 -0.32579488
0002b0 fa c6 13 bd 15 8c 51 bd 55 27 49 3e 08 4e af bc
       -0.03607843 -0.051158983 0.1964391 -0.021399513
0002c0 20 de 11 3e 7c dd d9 3d 47 4e f0 3e d3 a2 6a 3e
       0.1424489 0.10637948 0.4693472 0.22913675
0002d0 19 d3 df 3c 62 25 3a be 88 da 64 3e d2 13 4a be
       0.027322339 -0.18178323 0.22348988 -0.19734123
0002e0 04 dd d4 bd 81 01 c7 be 4c 37 0a be 1b ad 6b 3d
       -0.10393718 -0.38868335 -0.13497657 0.057538133
0002f0 87 39 59 3e 1e 65 b1 bc 81 c0 65 3e 26 19 e1 3e
       0.21213351 -0.021654662 0.22436716 0.439645
000300 61 56 2c bd e6 d2 fd bd ed 0a 7f be f1 54 55 3e
       -0.042074565 -0.12393741 -0.24906512 0.20833184
000310 53 6a 8d 3e c4 ac 7a be 20 db 05 bd 14 d0 8f 3d
       0.2762018 -0.24479967 -0.032679677 0.0702211
000320 2d 81 ef 3d df 13 57 bb 7b 95 d0 3e a3 7d 00 3d
       0.1169456 -0.003281824 0.40739045 0.031369817
000330 f9 42 37 3e c9 5e 9c 3e ce 30 5f be b8 17 66 be
       0.17896642 0.30541065 -0.21795961 -0.22469985
000340 53 c4 16 be fc 56 cc 3d 1f 0e d4 3e 77 7e 6b 3e
       -0.14723329 0.099775285 0.41417024 0.22997461
000350 de 6e 38 3e cc e6 56 3d e2 74 8d bc 5b a2 76 be
       0.18011042 0.0524662 -0.017267648 -0.24085371
000360 f9 e4 c1 3d 30 4e 0e 3e 91 33 da be 16 f0 8b bc
       0.09467501 0.13897014 -0.42617467 -0.017082255
000370 fb 77 83 3e 72 05 27 3d be 1c 54 be 47 db 96 3d
       0.25677475 0.040776677 -0.2071409 0.073660426
000380 fd 4b 08 be dc 91 6b 3e 21 52 f7 bd 8d 14 b1 3d
       -0.13310237 0.2300486 -0.12076212 0.08646498
000390 a4 85 00 3e 62 65 9d bd 85 a9 2f 3e 98 dd 03 be
       0.1255098 -0.07685353 0.1715451 -0.128775
0003a0 55 9e 60 3e 46 0f 6c 3e 8f 67 d4 3d 3f 30 4d be
       0.21935399 0.23052701 0.10371315 -0.20037936
0003b0 cd 4e 1b be b1 2e 4e be cc d2 de 3e 68 93 d7 be
       -0.15166779 -0.20134999 0.435202 -0.4210465

encoder_layer.self_attn.out_proj.weight f4 [80, 80]
000000 e2 85 13 be 2a f8 24 be 81 ff 5b be 9d 0c 1a be
       -0.14406541 -0.16110292 -0.21484186 -0.15043874
000010 3e d0 88 3d d6 27 13 bd 60 51 33 3e 0c 76 84 bb
       0.06680344 -0.035926662 0.17511511 -0.0040423926
000020 5d e2 07 3e e0 2c 89 bd 3e 33 1d 3d b6 d8 dd bd
       0.13269944 -0.06698012 0.038378946 -0.1083235
000030 11 a7 c6 bd b6 ba d5 bd c1 a4 85 bd 12 b7 fc 3d
       -0.09699834 -0.10436003 -0.06525565 0.123396054
000040 56 25 fb bd fc ff 60 bd dc 88 6c 3c 91 d2 3a be
       -0.12262981 -0.054931626 0.014436927 -0.18244387
000050 57 ae 44 be 71 7e a6 3d f9 f0 84 bd ee 9a eb bd
       -0.1920713 0.081295855 -0.064912744 -0.1150416
000060 86 bb 6a be 9a a3 04 3d b7 57 e0 bd e3 6f f4 bb
       -0.22923097 0.032382585 -0.1095423 -0.007459627
000070 ae 71 4f 3d b9 20 7f bd a8 68 83 3c 89 d0 04 3e
       0.050645523 -0.062287066 0.016041115 0.12970175
000080 61 cd c4 bd f6 be 3e 3d fb 6f 4e be 46 55 64 bb
       -0.096094854 0.046568833 -0.20159905 -0.0034840866
000090 58 de f2 bd 23 7c be bc 06 fd 58 bd 2f 18 22 3c
       -0.11858815 -0.023252552 -0.052975677 0.009893461
0000a0 56 84 48 3e 78 c8 08 3d 54 46 10 3e ec ec 64 3d
       0.19581732 0.033394307 0.14089328 0.05589001
0000b0 ea 1d 6f bd 27 19 03 be b3 5e 7d 3d cd ee 84 3b
       -0.058378138 -0.12802564 0.06185789 0.0040567876
0000c0 b8 f7 19 be 92 a0 d3 bd 10 90 20 bd d4 50 16 3e
       -0.15035903 -0.10333361 -0.03919989 0.14679271
0000d0 ed 5a db 3d c1 e4 54 3c 34 26 25 be 0e 18 ac bc
       0.10710702 0.012993992 -0.16127855 -0.021007564
0000e0 35 61 85 bd 3a 51 db 3d ec 14 43 be da 5b e2 3c
       -0.065126814 0.10708852 -0.1905095 0.027631689
0000f0 1e 16 37 bd d1 03 22 bd dc 4c 0b 3d 65 7a f6 bd
       -0.044698827 -0.03955442 0.034008846 -0.12035064
000100 a3 c3 0c bc 69 a7 31 bc 9d aa 12 bd 24 9c bd bc
       -0.008591565 -0.010843136 -0.03580724 -0.023145743
000110 1d 46 4a ba cb 3d 45 3e 54 1b 8e 3d 5b 74 15 be
       -0.0007716136 0.19261853 0.06938806 -0.14595167
000120 02 76 b1 3c 75 f8 50 3d 29 ba 3a 3c 73 1a 72 bc
       0.021662716 0.051018197 0.011396923 -0.014776814
000130 b8 61 2e 3d a9 74 ad bc fd a0 30 bd da 62 95 bd
       0.04257366 -0.021173792 -0.04312228 -0.07294245
000140 31 f2 91 bd ab 6b 91 3c 03 33 56 3d 43 95 c0 bd
       -0.071262725 0.017751535 0.052294742 -0.094034694
000150 7b 8f ba 3d 99 13 08 be 4c d1 e6 3c 88 14 01 3d
       0.09109398 -0.13288726 0.028175972 0.03151372
000160 58 25 ba 3b da 01 1b bd a7 bc 13 bc 49 11 0e 3e
       0.0056807213 -0.037843563 -0.009017146 0.13873781
000170 50 f2 e7 3d e9 be f8 bd 01 10 d5 3d a1 fc b4 bd
       0.11325514 -0.12145788 0.10403443 -0.08837248
000180 55 42 40 bd 9f d7 18 bd 4f bb 77 bb 67 6d 77 3d
       -0.04693826 -0.037315007 -0.0037800854 0.06040707
000190 94 05 91 bc bf d8 ef bd c5 20 95 3d d8 d7 a5 bd
       -0.017702855 -0.11711263 0.07281641 -0.080978096
0001a0 71 2e dc 3d 5b 25 88 be c2 48 ea bd 9c d3 7d bd
       0.107510455 -0.26591 -0.11439659 -0.061969385
0001b0 04 6b 8a 3c 12 91 9d bd cb a2 41 3d dc 8d 03 3e
       0.016896732 -0.076936856 0.047274392 0.12847084
0001c0 1e c8 ee bd 3e 93 ac 3c 4b 88 e7 bc 09 f1 6b bd
       -0.11659263 0.021066304 -0.028263232 -0.057602916
0001d0 14 44 27 3d 84 01 77 3d a8 f4 f9 bd e2 5e 81 bd
       0.04083641 0.06030418 -0.122048676 -0.063169256
0001e0 5b a5 f2 3d 45 0a 68 3d 6a 28 59 3d 8b 86 0b 3e
       0.11847945 0.05665042 0.053017057 0.13625543
0001f0 c6 3b 07 be f7 3e 4c 3d 35 b3 68 be d2 8c c0 bd
       -0.13206396 0.049864735 -0.22724612 -0.09401859
000200 b9 bb 95 3c 45 82 93 bd 71 02 70 3d a1 7b b0 bd
       0.01827799 -0.07202581 0.05859608 -0.0861733
000210 22 d7 19 be 90 e1 a2 3d e5 b7 27 3b 04 50 da bd
       -0.15023473 0.07953179 0.0025591787 -0.10659793
000220 6d c6 97 bd 12 66 49 be 77 d9 5d 3c 41 8f 0b bd
       -0.074108936 -0.19667843 0.013540617 -0.034072164
000230 ba e1 98 3d 86 0e 81 bd 3d 6c 4c 3e 28 88 8d bd
       0.07464929 -0.06301598 0.19963165 -0.06910735
000240 a7 27 1b bd cb 2c dc 3d 11 f7 08 3e 8e da a1 3d
       -0.037879612 0.10750731 0.13375498 0.07903014
000250 d2 d3 f4 bc d9 5e 96 3d ff be fd 3c 0a 0a f0 3d
       -0.02988616 0.073423095 0.030974863 0.11720665
000260 05 0d dc bd a5 54 2c 3d fe e1 c6 b8 6f 0b 86 bc
       -0.10744671 0.04207291 -9.48347e-05 -0.016362874
000270 6d 25 05 3d a2 98 24 bc be 81 98 3b 67 c7 fa 3c
       0.032506395 -0.010046156 0.0046541383 0.03061266
000280 d6 c5 97 3c 53 38 85 bd cc 84 80 3b bb 8c 68 bc
       0.018526953 -0.065048836 0.0039220806 -0.014193709
000290 55 39 d4 bd 1a 08 e9 bd 02 83 20 3e ce 14 12 3d
       -0.10362498 -0.113784984 0.15674976 0.035664372
0002a0 05 e0 c3 ba 83 84 f3 3c 23 00 ba bd 82 29 ea 3d
       -0.0014944082 0.029726272 -0.09082057 0.11433698
0002b0 0c 33 cb bd 41 6b 3e 3d d0 f2 3b 3e 7c 14 a4 3b
       -0.09921846 0.046489004 0.18354344 0.0050073247
0002c0 9e 39 98 3d 9d 8f cb bc 4f 85 b8 bd aa 54 23 3e
       0.074328646 -0.024848754 -0.090098016 0.15950266
0002d0 61 26 b6 bd 2d 66 88 3b 68 b5 22 3e 63 92 be 3c
       -0.08894039 0.004162571 0.15889513 0.023263162
0002e0 2c 29 81 bd d9 a2 2b 3d bf c9 df bd ba cb 23 bd
       -0.06306681 0.04190335 -0.10927152 -0.03998921
0002f0 3a 4c d9 bc ba 80 2f bd 8e 12 fa 3c f0 0e 21 3c
       -0.026525605 -0.042847373 0.030526426 0.0098302215
000300 af c2 cf 3b 0e 72 1f bd 4b 5f 0a 3d c7 65 ed bd
       0.0063403468 -0.03892713 0.033782285 -0.11591678
000310 81 25 01 3e a7 53 81 bd 7a 23 98 3c 53 7f 93 bd
       0.12611963 -0.063147835 0.018571604 -0.072020195
000320 8a 01 ea bd 02 0b 26 bd fd 01 05 3d 19 85 76 bd
       -0.11426075 -0.04053784 0.0324726 -0.060185526
000330 30 36 dc 3d b3 48 7a 3d 74 87 c8 bb 2d d7 09 be
       0.10752523 0.061104488 -0.006119663 -0.1346099
000340 ea 20 99 3d 8e 3f 8b bd ec a6 4a 3e ec b7 75 bd
       0.07476981 -0.067992315 0.19790238 -0.059989855
000350 a6 31 ba bd e7 70 f0 3c 43 5f c5 3d 2d fd 5d 3d
       -0.09091501 0.029350711 0.0963731 0.054196525
000360 ae e2 af 3d a7 13 58 3e 7f a2 07 bd 18 c5 46 bd
       0.085881576 0.21101247 -0.033113953 -0.048527807
000370 f5 df 70 3a ab b2 20 be 9d 49 9c 3c 31 71 7b 3d
       0.00091886456 -0.15693156 0.01907807 0.061387245
000380 01 87 65 3d 59 62 f7 3d 8e 68 9d 3d 22 96 90 bc
       0.056036953 0.12079305 0.07685958 -0.017649714
000390 92 d0 50 bd e6 97 af bd 18 91 00 bd 2d 17 25 bb
       -0.05098016 -0.08573894 -0.031388372 -0.0025190816
0003a0 d2 49 2d bd 0d 41 ea 3d 17 02 25 bd 25 ef 8b 3d
       -0.04230673 0.11438189 -0.040285196 0.068327226
0003b0 97 10 24 bd 23 31 09 be 6f 1c 29 3d 0d 0a a6 3c
       -0.040054884 -0.1339765 0.041286882 0.020268464
0003c0 0f b3 25 be 5f 32 d0 bd d1 95 ee 3c 77 9a d7 bc
       -0.16181587 -0.101658575 0.029124172 -0.026318772
0003d0 99 ba 93 bd 57 aa 25 3e d0 13 c2 bd 96 93 b3 3c
       -0.07213325 0.1617826 -0.09476435 0.02192096
0003e0 e7 53 5c bd a0 f2 8c 3d d7 5f 9c bc 32 05 6e 3d
       -0.053790953 0.068822145 -0.019088669 0.058110423
0003f0 04 2b 97 bd f8 c9 b8 3d 3a a0 e3 3c d1 cf a8 3d
       -0.073812515 0.090228975 0.027786363 0.08242763

encoder_layer.self_attn.out_proj.bias f4 [80]
000000 d3 64 11 3f 9c 5f 86 be dd e4 21 3f 9d 54 d4 be
       0.5679447 -0.2624482 0.6323984 -0.41470805
000010 5f 7d 11 3f 41 ea a7 be e4 63 24 bd 58 0c cb 3d
       0.56831926 -0.3279591 -0.040134326 0.09914464
000020 f9 16 0a 3d 8c 66 a2 bd dd 7f 49 be f1 56 a6 3e
       0.033713315 -0.079297155 -0.19677682 0.32488206
000030 b6 16 05 bf e3 77 e0 bd 1d a0 24 bd 50 02 3c bd
       -0.5198778 -0.109603666 -0.04019176 -0.045900643
000040 24 1e 2d 3e 01 eb 01 3e de 41 9e be 9a ae c6 be
       0.16906029 0.12687303 -0.30909628 -0.38805085
000050 d3 66 8d 3e a1 ea 6b be 17 e1 51 be 9a c0 9d be
       0.2761751 -0.23038723 -0.20496021 -0.30811006
000060 f5 c9 9d 3d 21 96 17 3a 2e 31 fb bd ce 67 1b 3f
       0.07704536 0.0005782564 -0.1226524 0.6070527
000070 a3 30 92 be af 94 05 3d 17 df 13 3c dd ea d0 bd
       -0.28552732 0.0326125 0.009025357 -0.102010466
000080 05 16 88 3e 1b 3e 0d 3d a6 7e 0c 3e 93 81 10 3e
       0.265793 0.034483057 0.13720188 0.14111929
000090 b2 3e d6 bd b8 d3 26 3e 5e d0 72 3e 26 1b 25 bf
       -0.10461177 0.16291702 0.23712298 -0.6449455
0000a0 80 0b 6d be 9f b2 80 3e d5 6a ad be 66 47 b5 3d
       -0.23148918 0.25136277 -0.3387057 0.08851509
0000b0 f1 05 35 be 33 00 23 be 28 87 7d 3d 13 e6 e8 3e
       -0.17678048 -0.15918045 0.061896473 0.45488033
0000c0 5f e2 0c 3f be 53 ee bd 79 81 dd 3d cd 70 8e 3c
       0.55032915 -0.11637066 0.108157106 0.017387772
0000d0 05 d7 cf 3d 68 87 45 3e d5 e4 89 bd be dd 0f 3c
       0.101484336 0.19289935 -0.06733099 0.008780895
0000e0 9c ae bf 3d 0c fd 13 3e ac a0 61 3d 23 19 08 3d
       0.09359476 0.14451998 0.05508487 0.033227097
0000f0 07 ad 17 be 78 70 a6 bd b3 76 50 bd 0a 45 62 bd
       -0.14812098 -0.081269205 -0.05089445 -0.055241622
000100 2a c2 12 3d ac 62 05 bd 45 ae 9a bd eb 0c 0a 3e
       0.0358297 -0.032564804 -0.075527705 0.1348149
000110 22 51 95 3e ee e0 5c be 47 7b bd be 34 4e a1 bd
       0.29163462 -0.21570179 -0.37008116 -0.07876244
000120 b7 fe a0 bd 58 9c b8 be a5 dd 68 be eb ef 53 be
       -0.07861083 -0.3605678 -0.227408 -0.2069699
000130 c1 9b b6 3e 2e 43 c3 3d a4 87 23 3e e1 cf 7d 3e
       0.35665706 0.09534298 0.15969712 0.24786331

encoder_layer.linear1.weight f4 [256, 80]
000000 de d9 33 bb 56 3c 9f 3d 73 3a 93 3d 40 26 ba 3c
       -0.0027443091 0.0777518 0.07188883 0.022723317
000010 20 c8 c7 3d f4 bc 9d be 92 19 42 3e 2c f6 25 3e
       0.09754968 -0.30808222 0.18955067 0.16207188
000020 ec a8 80 3d 80 bd 25 3e 1e 91 7c be b9 3b 8f be
       0.06282219 0.1618557 -0.24664733 -0.27975252
000030 f5 84 58 be a0 44 1a be 3f 8f c3 bc 23 ec 5c bd
       -0.21144469 -0.15065241 -0.023872016 -0.053936135
000040 94 99 2b 3d 84 74 95 3b 6d fd 8e ba 35 32 d1 3d
       0.04189451 0.004561009 -0.0010909267 0.10214654
000050 91 16 60 3b d2 f6 bb 3d 65 1d 37 3d df 9c 64 be
       0.0034193138 0.091779366 0.044705767 -0.22325467
000060 e7 e3 59 bb f0 3d 78 bc 02 32 64 bd 24 5d 33 3e
       -0.0033247413 -0.015151486 -0.055711754 0.17515999
000070 ae 3c 2e 3e 8b d6 22 bd a4 75 55 3d aa 10 19 be
       0.17015335 -0.039755385 0.052114144 -0.14947763
000080 3c ed 65 be 79 c1 85 3e ba 2b 36 3e 73 2c 5f 3e
       -0.22453779 0.2612417 0.17790118 0.217943
000090 a1 ba 49 be 0d 1d 60 3d e9 17 26 be a1 62 8e be
       -0.197001 0.054715205 -0.16220059 -0.27809623
0000a0 c8 2e 08 3e 6b 18 52 be d1 d1 14 be ac 84 6a bd
       0.13299096 -0.20517127 -0.14533164 -0.057255432
0000b0 f2 78 c1 be 0f d2 19 3e 25 eb cd 3d 44 6b aa 3d
       -0.37787586 0.15021537 0.10054616 0.083212405
0000c0 83 78 7f be ad 20 0f 3e 90 aa 74 bd 28 de 88 3e
       -0.24948315 0.13977309 -0.059732974 0.26731992
0000d0 2b 25 6f 3d 67 e7 d9 3d 67 9e 2f be c7 2e 5d 3d
       0.058385056 0.106398396 -0.1715027 0.05399969
0000e0 52 fd 3b 3c 24 78 4f bc 3e 8e be bd da 44 8e 3e
       0.0114739705 -0.012662921 -0.09304474 0.27786905
0000f0 c5 40 16 bc b7 e7 34 3e bc 8f f3 3d 0d df 9b 3c
       -0.009170716 0.17666517 0.118926495 0.019027257
000100 f8 df 9c be 01 04 3a bd d0 8e 52 be fc bf 23 3d
       -0.30639625 -0.045413975 -0.20562291 0.039978012
000110 6b 56 4a bc 20 77 58 3d 2d eb 24 be 49 5a c8 bd
       -0.012349705 0.05284798 -0.16105337 -0.097828455
000120 db 97 b9 3d b2 72 77 3c 31 1a d4 3c 34 fc 24 be
       0.09062167 0.015103029 0.025891395 -0.16111833
000130 9a bd e5 3c 49 98 bd bd 3a e4 6c 3e ca 1b 2a bd
       0.02804451 -0.09257562 0.23133937 -0.041530408
000140 0e c1 28 be 0b 32 e5 3d 0a 58 ad bd eb 4e 4c 3e
       -0.16479895 0.111911856 -0.08464058 0.1995198
000150 e3 f9 28 be 76 b4 94 bc 65 38 15 be 61 e5 39 3d
       -0.16501574 -0.018152457 -0.14572294 0.04538477
000160 c5 aa 4c be 72 72 80 bd 2f 62 88 be 40 66 27 3e
       -0.19987018 -0.06271829 -0.26637408 0.16347599
000170 54 35 6f bb 48 18 f7 3d 75 7d a8 bd 24 a9 4c 3e
       -0.0036500292 0.12065178 -0.08227054 0.19986397
000180 fd 0b 66 3d 72 8e 4b 3c 41 22 ed 3d 4c 94 3f 3e
       0.056163777 0.012424098 0.11578799 0.18708915
000190 51 d9 3a be 2f c5 75 3e 87 4f f1 3e 47 30 92 bd
       -0.18246962 0.24001001 0.47130987 -0.071381144
0001a0 a9 85 61 be b6 b1 6f 3e 64 0a f9 3d 10 c8 58 be
       -0.22023644 0.23407635 0.12160185 -0.21170068
0001b0 d9 4d f1 bd 6f 75 3d be b2 bb 94 3e 43 4d 76 bd
       -0.117824264 -0.18501829 0.2904945 -0.060132276
0001c0 97 f8 56 3e 43 f3 d1 3e 65 34 01 be 32 0f 4f 3d
       0.20993267 0.41005906 -0.12617643 0.0505516
0001d0 ba 40 d6 3c 3b 45 c0 3d 97 50 6a 3d 2d aa f2 bd
       0.02615391 0.09388205 0.057205763 -0.11848865
0001e0 45 ae 0f bb e4 88 88 bd 26 06 6b be 86 8c 32 be
       -0.002192394 -0.06666735 -0.22951564 -0.17436418
0001f0 62 f6 49 be 13 27 95 bd 46 35 23 be 17 2a fb 3b
       -0.19722894 -0.072828434 -0.15938291 0.0076649296
000200 39 df da bd 1a 23 86 3d 64 1a 36 be 1d 64 66 3e
       -0.106871076 0.06549664 -0.17783505 0.22499128
000210 06 bb 4d be 7d 50 0e 3e 68 16 13 be b6 e6 a8 be
       -0.20090875 0.13897891 -0.14364016 -0.32988518
000220 77 c4 19 3d 83 06 cc 3d c2 ef 29 be d4 45 a2 bd
       0.03754088 0.099621795 -0.16595367 -0.07923475
000230 cb cd c1 bd 88 17 42 3e 82 87 73 3e ab 50 46 bd
       -0.0946308 0.18954289 0.23782161 -0.048416775
000240 f5 b6 5c 3d 54 96 06 be bb 6e 66 3e f3 e6 78 be
       0.05388542 -0.13143283 0.22503178 -0.2430685
000250 22 6e 58 bd ca 37 2d 3e 36 2d 2e 3e b1 f6 2f be
       -0.052839406 0.16915813 0.17009434 -0.17183949
000260 32 b6 64 bd 8d e8 79 3d 31 6b 95 3b bf e6 fb be
       -0.055837817 0.061012793 0.0045598974 -0.49199483
000270 05 f6 ff bd ba 50 d1 3d 5d 18 4d 3d ea b4 06 3e
       -0.124980964 0.102204755 0.050072063 0.1315495
000280 09 49 6d be 19 50 63 bd e3 19 52 3e 4a f9 fe bb
       -0.23172392 -0.05549631 0.20517687 -0.0077811824
000290 70 e6 b9 bd 14 cf 8d 3d 58 fb 5c 3d 5d 5b 41 be
       -0.090771556 0.06924263 0.053950638 -0.18882509
0002a0 24 e4 0b be 19 6c 53 bc a3 61 4c be 59 ee 5f 3e
       -0.13661247 -0.01290419 -0.1995912 0.21868266
0002b0 b2 3a eb 3d 24 24 2b 3e 52 56 2a be 73 e8 91 be
       0.114858046 0.16713005 -0.16634491 -0.28497657
0002c0 b6 e8 84 bb 6b 4e e9 3c 29 49 c5 3e ce cc bf 3d
       -0.0040560616 0.028479775 0.3853238 0.09365235
0002d0 da 1a 9c bb 66 ce 4e 3e 1a c9 1f 3d 92 8e d7 bd
       -0.004763943 0.20195922 0.039010145 -0.1052524
0002e0 db 89 17 bd f8 b0 84 3c b1 85 e1 3d c4 d3 54 bd
       -0.036996704 0.016197667 0.11011828 -0.051959768
0002f0 46 03 93 be f8 29 a2 bd 6b ea 7e 3e 5a 70 ab be
       -0.28713435 -0.07918161 0.24894111 -0.33484155
000300 39 2d 82 3d 4f 20 0e 3e 8b 46 62 be 98 34 eb 3d
       0.06356282 0.13879512 -0.22097223 0.11484641
000310 9f 18 b5 bd 0b 18 0e bd 45 bd 82 be f6 f4 96 be
       -0.08842587 -0.034690898 -0.25535026 -0.29483765
000320 44 c2 51 3e 19 cb 13 be c7 1e 95 3d 45 b5 92 be
       0.20484263 -0.14432944 0.07281261 -0.28653923
000330 14 6b 91 3d 63 33 3c bd 25 dd fa bd b8 6d 1e 3e
       0.07100502 -0.045947444 -0.12249211 0.15471542
000340 fc c5 b1 be 64 fb 88 3d b6 e2 33 3e 2e 37 86 3d
       -0.34721363 0.06688574 0.17566952 0.065534934
000350 d0 bd 0b be 70 14 66 bd 29 f3 cb 3d 57 30 9a bd
       -0.13646626 -0.056171834 0.099584885 -0.07528751
000360 e4 5c c3 3e 6d f9 81 3e f5 ce 07 3e 30 bb e1 3d
       0.38156807 0.2538561 0.13262542 0.11022031
000370 a8 4a 39 3e e7 fb c2 bd 6f 40 46 bd 35 08 6e bd
       0.18094885 -0.09520703 -0.048401292 -0.058113296
000380 29 ee 26 be e6 78 fa 3d e4 e3 1a 3e 42 1a 9a 3e
       -0.16301788 0.12230091 0.15125996 0.30098158
000390 64 8c 0c be 65 35 77 be 48 e7 a3 bd 80 d9 2c 3e
       -0.1372543 -0.24141462 -0.08003098 0.16879845
0003a0 35 88 0e 3e 5e 48 5a 3d 83 8a 55 3e 8c c7 6a 3e
       0.13919146 0.05329167 0.2085362 0.22927684
0003b0 4c bc b7 bc 63 b7 2a bd 5a 4e ee 3d 22 e9 89 be
       -0.022428654 -0.041678797 0.11636038 -0.2693568
0003c0 85 f5 b0 3d af 78 ae bd 1a a5 80 3e 70 8a 14 3e
       0.08640579 -0.08519112 0.25125962 0.14505935
0003d0 8b 5c c0 3d d7 5e 26 3e 53 cc e6 3d 3f 86 f8 bd
       0.09392651 0.16247116 0.112694405 -0.121349804
0003e0 07 4f a8 3c 79 e8 0c 3a 99 5f 64 bc 30 8e 7b be
       0.020545496 0.00053752173 -0.013938808 -0.24565959
0003f0 fb 1e 51 3d b5 e3 3c 3e 1d 6d 56 ba 7b 6c c2 bd
       0.051054936 0.18446238 -0.00081797113 -0.09493347

encoder_layer.linear1.bias f4 [256]
000000 3d 3d 99 be fc 1d 0e be 78 fe 1e be d1 6f 45 be
       -0.29929534 -0.13878626 -0.1552676 -0.19280936
000010 6d c6 89 be ba c1 61 bd 4f 12 8e be 00 97 2e be
       -0.269092 -0.055116393 -0.27748343 -0.1704979
000020 b6 0f 98 be 44 84 93 be 1c e0 3a be 4b ad 9c be
       -0.29699486 -0.28811848 -0.18249553 -0.30600962
000030 bd 0f 0e be 9f a3 df bd fb 90 32 be 60 21 b5 bd
       -0.13873191 -0.1091988 -0.17438118 -0.088442564
000040 02 b1 50 be 99 2f 27 be 18 17 4b be f1 c6 38 be
       -0.20380023 -0.16326751 -0.19833028 -0.1804464
000050 3d 86 38 be 5a d1 5a be 02 dd 3f be 04 79 88 be
       -0.18019958 -0.21368924 -0.18736652 -0.26654828
000060 3a e5 39 be 23 93 1b be aa 51 5b be 58 ba 7d be
       -0.18153849 -0.15192847 -0.21417871 -0.24778116
000070 cc 64 70 be ac 4d 53 be f1 1c 9b bd e6 9d 3b be
       -0.23475951 -0.20635098 -0.075738795 -0.18321952
000080 c8 6e ce bd cc 3e 85 be 2e cd 10 be 5f 8d 1e be
       -0.100797236 -0.26024473 -0.1414077 -0.15483616
000090 0f 22 64 be 2b d0 49 be 59 2f 6b be c0 be 04 be
       -0.22278617 -0.19708316 -0.2296728 -0.1296339
0000a0 27 35 42 be a1 fc 67 be c5 0b 00 be 56 d7 47 be
       -0.18965589 -0.22654964 -0.1250449 -0.19515738
0000b0 a5 f8 90 be 5e c1 88 bd 2e 71 0c be a5 0d e1 bd
       -0.283147 -0.06677507 -0.1371505 -0.109889306
0000c0 94 13 15 be 98 36 99 bd 30 6b 32 be c2 76 09 be
       -0.1455825 -0.07481116 -0.17423701 -0.13424209
0000d0 46 89 0c be a5 6e a4 bd 35 8d 43 be d9 46 0b be
       -0.1372424 -0.08028916 -0.19096835 -0.13601245
0000e0 3f 7d 30 be ad e9 56 be 28 95 08 be d0 43 c7 bc
       -0.17235278 -0.20987578 -0.13338149 -0.024324328
0000f0 b5 49 42 bd b5 f9 98 be 01 08 68 be 78 ef 86 be
       -0.047433574 -0.2987801 -0.22659303 -0.26354575
000100 bc 48 54 be 87 3f 7b be de 1f 68 be 86 d7 83 be
       -0.20730871 -0.24535953 -0.22668406 -0.2575037
000110 de 89 63 be f0 ef 9b be 81 8b a2 be 0b 02 92 be
       -0.22220561 -0.30456495 -0.31747058 -0.28517184
000120 25 d4 26 be 1a 42 41 be ad d3 35 be 9b fd 28 be
       -0.16291864 -0.18872872 -0.17756529 -0.16502993
000130 c3 86 61 be 7e 01 15 be df 9e 94 be ad d1 fe bd
       -0.22024064 -0.1455135 -0.2902746 -0.12442336
000140 ec 46 39 be 67 df 59 be 15 17 09 be 7e ee 2f be
       -0.18093461 -0.21276627 -0.13387711 -0.17180821
000150 07 04 95 bd 91 59 02 be ab b1 37 be e2 39 3b be
       -0.07276159 -0.1272948 -0.17938869 -0.182838
000160 6e 99 12 be 67 4d 5e be 3d e3 2f be 4b 9d 53 be
       -0.14316341 -0.21709214 -0.17176528 -0.20665471
000170 bd bd 84 be 49 f0 6e be 81 c7 2f be da 11 80 be
       -0.2592601 -0.23333849 -0.17165948 -0.2501362
000180 02 d5 1d be 24 e7 14 be c3 d0 08 be 8b 0c 3f be
       -0.15413287 -0.14541298 -0.13360886 -0.18657129
000190 d0 a0 aa be 7c 1f ac be 73 94 10 be ba f8 24 be
       -0.33325815 -0.3361777 -0.14119129 -0.16110507
0001a0 c8 9c 46 be 09 fb 47 be 22 42 c8 bd a8 a8 c5 bd
       -0.19395745 -0.19529356 -0.09778239 -0.09651309
0001b0 89 1a 2c be 05 5b 91 be e9 9e 09 be ae 8a ac be
       -0.16806997 -0.28389755 -0.13439526 -0.33699554
0001c0 a8 bc 82 be 28 f2 22 be 96 31 6a be 13 d1 26 be
       -0.25534558 -0.15912688 -0.22870478 -0.16290693
0001d0 dc e4 e8 bd e2 b3 54 be b5 97 22 be 4e 90 dd bd
       -0.113717765 -0.20771745 -0.15878184 -0.108185396
0001e0 bc 04 90 be ca f3 74 be c1 c4 7b be 0f ed 83 be
       -0.28128612 -0.23921123 -0.24586774 -0.257668
0001f0 c4 18 13 be 46 6c 2f be 0e 87 83 be 9e 92 3c be
       -0.14364916 -0.17131147 -0.25688976 -0.18415305
000200 1d 40 2d be 98 a9 02 be 6f b7 2e be d8 8d 42 be
       -0.16918989 -0.12760007 -0.17062162 -0.18999422
000210 1b 33 2c be 78 97 4b be ea 59 5f be ba d3 23 be
       -0.1681637 -0.19882 -0.21811643 -0.15998736
000220 6b 72 a3 be 05 e1 67 bd 70 8d 0f be c7 48 1f be
       -0.3192323 -0.05661108 -0.14018798 -0.15555106
000230 1e 22 58 be 38 07 5d bd 90 12 fb bd 01 5e 6e be
       -0.21106765 -0.053961962 -0.122594 -0.23278047
000240 1c b9 93 be f9 2c 3a be 36 6e 57 be 4c 60 f3 bd
       -0.28852165 -0.18181218 -0.21038136 -0.118836015
000250 f6 23 ed bd 96 fb 17 be b6 ba 46 be ba 35 89 be
       -0.11579125 -0.14842066 -0.19407162 -0.26798803
000260 7e 9e 22 be b2 75 42 be 8c a2 75 be 7e e4 32 be
       -0.15880772 -0.1899021 -0.23987788 -0.17469975
000270 24 87 60 be c8 4b 57 be 85 34 f8 bd 5b 76 4a be
       -0.21926552 -0.21025002 -0.12119392 -0.19771712
000280 52 5e d9 bd c9 54 2b be f1 71 d1 bd 33 cd 42 be
       -0.10613693 -0.16731562 -0.10226811 -0.1902359
000290 e7 1c 5a be e4 ee 8f be 97 5a 08 be 25 2f 6e be
       -0.21300088 -0.28111947 -0.13315807 -0.23260172
0002a0 24 09 fa bd 9a fe b7 bd 6f e4 70 be 8a 9f 82 3c
       -0.12208775 -0.08984108 -0.2352464 0.015945215
0002b0 ce e4 18 be 34 ed 05 be 4c fc 86 be 27 0a a6 bd
       -0.14931032 -0.13078767 -0.26364362 -0.08107405
0002c0 82 77 91 be 77 9b 57 be 89 0a ff bd bb a9 1a be
       -0.2841149 -0.21055399 -0.12453181 -0.1510381
0002d0 80 5d 49 be 32 9a 76 be 33 dd fc bd d4 05 03 be
       -0.19664574 -0.24082258 -0.12346878 -0.12795192
0002e0 2c 6b 34 be e3 31 22 be a7 f1 24 be 43 25 37 be
       -0.17619008 -0.15839343 -0.16107808 -0.17885308
0002f0 a5 75 45 be eb ec 8e be 3f 4e 00 be ba 35 a4 be
       -0.19283159 -0.2791513 -0.12529849 -0.3207224
000300 a7 cf a0 be 7f 25 98 bd 12 74 3b be 2c 85 40 be
       -0.31408426 -0.07429027 -0.18305996 -0.18800801
000310 4e 27 0f be d2 b1 83 be 61 3a 55 be 94 98 88 be
       -0.13979837 -0.25721604 -0.20823051 -0.26678908
000320 a5 ad 23 be 9f 34 47 be d0 db 21 be 8c eb 36 be
       -0.15984209 -0.19453667 -0.15806508 -0.17863292
000330 85 3f f0 bd 41 79 88 be a3 8d 1a be eb 1f 1b be
       -0.117308654 -0.2665501 -0.15093093 -0.15148894
000340 cc c9 3e be ea b1 a0 be 17 54 36 be cf 94 06 be
       -0.18631667 -0.31385738 -0.17805515 -0.13142703
000350 fb 30 20 be bd 66 82 be 0d 5d 92 be 7f b9 e8 bd
       -0.15643685 -0.25469008 -0.28586617 -0.113635056
000360 4f e0 8a be 23 45 3c be ad fa f6 bd a4 1b ba bd
       -0.2712426 -0.18385749 -0.12059531 -0.09087303
000370 8b 04 19 be 8c 47 10 be b3 9c 53 be 08 bf 3c be
       -0.1494314 -0.14089793 -0.20665245 -0.18432248
000380 ed bb 37 be 97 b6 23 be f5 56 49 be ae 0d 35 be
       -0.17942782 -0.15987621 -0.19662078 -0.17681
000390 1a 82 29 be 18 5e c0 bd 92 f4 2b be 63 4a 50 bd
       -0.16553536 -0.09392947 -0.16792515 -0.05085219
0003a0 af 68 08 be f9 c5 61 be aa 77 28 be c7 a1 1d be
       -0.13321184 -0.22048177 -0.16451898 -0.15393744
0003b0 3e a9 9a be 81 0d d2 bb 58 4d 82 be 38 8b 53 be
       -0.30207247 -0.006410301 -0.25449634 -0.20658576
0003c0 51 21 05 be 0e d7 26 be e9 38 36 be 6a da 33 be
       -0.1300099 -0.16292974 -0.17795147 -0.17563787
0003d0 24 e7 42 be 1b 44 82 be de ad 2f be 29 8e 69 be
       -0.19033486 -0.25442585 -0.17156169 -0.22808136
0003e0 82 fb 63 be e5 cf 32 be 55 15 7c be 51 4c 08 be
       -0.22263911 -0.17462118 -0.24617513 -0.13310362
0003f0 a8 6b 96 bd 43 9e 50 be 07 5a de bd 42 98 02 be
       -0.073447526 -0.20372872 -0.10857015 -0.12753394
