hw1_regression/models/model.ckpt (torch, 5271 bytes, 5 tensors)

layers.0.weight f4 [16, 40]
0	0xbd61046b	-0.054935854
1	0x3e225fb7	0.15856825
2	0x3e3eddf5	0.18639357
3	0x3ceb8bda	0.02875321
4	0x3e17aa54	0.14811069
5	0x3d099990	0.033593714
6	0x3d311613	0.043233942
7	0x3c8635f3	0.016383147
8	0x3d100dec	0.035169527
9	0x3cba2345	0.022721896
10	0x3d5e03be	0.054202788
11	0x3a8fd0a2	0.0010972212
12	0xbcdd47be	-0.027011748
13	0xbce85ca8	-0.028364494
14	0x3dd8fd97	0.105952434
15	0xbcc19025	-0.023628304
16	0x3d9d86a9	0.076917
17	0x3cd32f56	0.025779407
18	0x3e77c968	0.24197924
19	0x3e0ea84c	0.13931388
20	0x3ddb0a90	0.10695374
21	0xbddd9984	-0.108202964
22	0x3e31b08a	0.173525
23	0x3d9c0a93	0.07619204
24	0x3e05e004	0.13073736
25	0xbdc01f57	-0.093809776
26	0x3e3b0a5f	0.18265675
27	0x3e116c67	0.14201508
28	0xbe2f24c8	-0.17103875
29	0x3dc6f3d9	0.09714479
30	0x3e185f82	0.14880183
31	0xbe48b0ec	-0.1959874
32	0x3d215048	0.039383203
33	0xbdb1c6eb	-0.08680519
34	0x3d9e78c2	0.077378765
35	0x3daa648b	0.08319958
36	0xbd8f0984	-0.06984237
37	0xbe102e09	-0.14080061
38	0x3ddcb023	0.10775783
39	0x3c8f9901	0.017529013
40	0x3d222b91	0.03959233
41	0x3dfa134b	0.12210711
42	0xbd7dc4a3	-0.061955106
43	0xbdf8bd61	-0.12145496
44	0xbdc8e4e4	-0.098092824
45	0xbdc296b3	-0.095014
46	0x3dc5a8a6	0.09651308
47	0xbdc3950b	-0.09549912
48	0x3dc7c4a1	0.09754301
49	0xbe0b14bd	-0.1358213
50	0xbe13ac8b	-0.14421289
51	0x3de9945f	0.11405253
52	0x3db93006	0.09042363
53	0xbd127341	-0.035754446
54	0x3d92437a	0.071417764
55	0xbe0dfffb	-0.1386718
56	0xbc080ba5	-0.0083035575
57	0xbe024af5	-0.12723906
58	0x3ab668ce	0.0013916732
59	0xbcb1332e	-0.02163085
60	0xbda889b7	-0.08229392
61	0xbdae4fd1	-0.085113175
62	0xbd43d116	-0.04780682
63	0xbc3cb31a	-0.0115173105
64	0xbdce8e85	-0.10085777
65	0xbdf7ced6	-0.12099998
66	0x3d18b51b	0.03728209
67	0x3d22984c	0.039696023
68	0x3e48f030	0.19622874
69	0x3e268e37	0.16265188
70	0x3d952231	0.07281912
71	0x3d7825c8	0.060582906
72	0xbe3e2953	-0.18570451
73	0xbdaaafd9	-0.083343215
74	0x3d58e469	0.052952204
75	0x3e24fb6f	0.1611154
76	0x3e233c95	0.15941079
77	0xbc44b383	-0.01200569
78	0x3e00bcde	0.12572047
79	0xbe35c492	-0.17750767
80	0xbc7a6755	-0.015283425
81	0xbcf743c0	-0.030183673
82	0x3e347eb0	0.17626452
83	0x3e2f5c85	0.17125137
84	0x3e23bfc9	0.15991129
85	0x3e12fa05	0.14353187
86	0x3e2a470e	0.16628668
87	0xbdb51d85	-0.08843521
88	0xbd43cdf9	-0.047803853
89	0xbd23037f	-0.039798256
90	0x3e3ec51c	0.18629879
91	0x3cef64bf	0.029222844
92	0xbda916b4	-0.082562834
93	0xbd98c85d	-0.07460091
94	0x3d2e094e	0.042489342
95	0x3c52e50d	0.012871993
96	0x3ded221c	0.115787715
97	0x3b829078	0.003984507
98	0xbcf11d03	-0.02943278
99	0x3dd4a84a	0.10383661
100	0xbdb66d39	-0.08907551
101	0x3d95ed68	0.07320672
102	0x3e0e5047	0.13897811
103	0xbd3358ba	-0.043785788
104	0x3c460579	0.012086266
105	0x3c31ad38	0.010844521
106	0x3e2b2d32	0.1671646
107	0x3e12a718	0.14321554
108	0xbdb34783	-0.08753874
109	0x3dd6998a	0.10478504
110	0x3d6e55b9	0.05818722
111	0xbc8d9205	-0.017281542
112	0xbd7181e8	-0.05896178
113	0xbcee8419	-0.029115723
114	0x3e7671c8	0.24066842
115	0x3dab9225	0.08377484
116	0xbcf369fd	-0.029713625
117	0xbd6b7a2e	-0.057489567
118	0x3d960647	0.07325416
119	0x3d501c71	0.050808374
120	0x3d8766c6	0.06611399
121	0xbca7fc21	-0.020505967
122	0x3dd5fbb5	0.104484
123	0xb90b7d55	-0.00013302763
124	0x3da41654	0.08012071
125	0xbdb7959a	-0.08964081
126	0x3e2b550c	0.16731662
127	0xbd0d74a1	-0.034535054
128	0xbd7819bd	-0.06057142
129	0x3c82ca56	0.015965622
130	0x3e3fee17	0.18743168
131	0xbd2194e4	-0.039448634
132	0xbe320f0d	-0.17388554
133	0xbcd662b9	-0.026170122
134	0xbd8190e4	-0.06326464
135	0x3d169fbe	0.036773436
136	0x3e0b8fe8	0.13629115
137	0x3c532d23	0.012889179
138	0x3e724e42	0.23662665
139	0x3de30384	0.11084655
140	0xbdb94f9c	-0.090483874
141	0x3dcfc367	0.10144692
142	0xbdbb96c7	-0.09159618
143	0xbe4a0d78	-0.197317
144	0xbd939ca4	-0.07207611
145	0xbdd73a58	-0.10509175
146	0x3ddd064d	0.107922174
147	0x3d825326	0.063635156
148	0x3df4f421	0.119606264
149	0xbd27fb2d	-0.041011024
150	0xbd3fd1a4	-0.04683079
151	0xbce7341e	-0.028223094
152	0x3d78a105	0.060700435
153	0xbe21f949	-0.15817751
154	0x3d9ff01e	0.078094706
155	0xbd823b43	-0.063589595
156	0x3d08f894	0.033440188
157	0x3d45265e	0.048132293
158	0x3de0afdf	0.10971045
159	0xbc99dd48	-0.018782273
160	0xbd1bd222	-0.038042195
161	0x3e063867	0.13107453
162	0x3d68d6f0	0.056845605
163	0x3d573a60	0.052545905
164	0xbde3ba63	-0.11119535
165	0xbd18a9fa	-0.037271477
166	0x3d8b886e	0.06813131
167	0x3e0c1fd7	0.13684021
168	0xbe1f8bb6	-0.15580639
169	0xbd36ee44	-0.04466082
170	0xbd015270	-0.03157276
171	0xbd67b51e	-0.05656921
172	0xbd780486	-0.06055119
173	0xbd80a715	-0.06281868
174	0x3ca99c48	0.020704404
175	0x3dc514f6	0.096231386
176	0x3dff780a	0.124740675
177	0x3d9b4ec8	0.07583386
178	0x3c88ed58	0.016714737
179	0xba97f200	-0.0011592507
180	0x3db26528	0.087107
181	0x3c41be90	0.011825219
182	0x3dbe5ea6	0.092953965
183	0xbd459594	-0.048238352
184	0xbdc1ef23	-0.0946944
185	0x3cdb02b8	0.026734695
186	0x3dd0913e	0.10183953
187	0xbdcf8a81	-0.101338394
188	0xbd3c2ba6	-0.045940064
189	0xbd1540da	-0.0364388
190	0xbdb9bd01	-0.09069253
191	0x3defd6ca	0.1171089
192	0xbd48b05c	-0.048996314
193	0xbd5b4e0c	-0.05354123
194	0x3daa2362	0.0830753
195	0x3d82df8a	0.06390293
196	0xbd0de700	-0.034644127
197	0xbd80ba2f	-0.06285512
198	0x3df4992e	0.11943279
199	0x3dce14a6	0.10062532
200	0x3e4da203	0.20081334
201	0x3e11ff46	0.14257535
202	0x3d91fe07	0.0712853
203	0xbcb22b40	-0.021749139
204	0xbbf375c3	-0.00742981
205	0xbdb1c072	-0.08679284
206	0x3d8677cd	0.06565819
207	0x3de914e8	0.11380941
208	0x3d995658	0.07487172
209	0x3e20e4cc	0.15712279
210	0xbe528180	-0.20557213
211	0x3e0aee44	0.13567454
212	0xbd1f38ab	-0.038872402
213	0xbdd3fe88	-0.10351282
214	0xbdf93fe1	-0.12170387
215	0x3e44449c	0.19166797
216	0x3cd90703	0.026492601
217	0xbdd43608	-0.10361868
218	0xbde94b4f	-0.11391317
219	0x3cc9dad0	0.02464047
220	0x3e0b8803	0.13626103
221	0x3de079d6	0.10960738
222	0xbd5184a6	-0.051151894
223	0x3daafe78	0.08349317
224	0xbd593037	-0.053024497
225	0x3e1a1d8b	0.15050332
226	0xb92a73dc	-0.00016255624
227	0xbdbca9e0	-0.092120886
228	0x3e376a69	0.17911686
229	0x3e0747cb	0.1321098
230	0x3cfa6668	0.03056641
231	0x3e1b0127	0.15137158
232	0xbe3e85af	-0.18605684
233	0x3dc0d709	0.09416015
234	0xbe0a4e9f	-0.13506554
235	0xbe1049db	-0.14090674
236	0x3c9b0b12	0.018926177
237	0xbc953718	-0.018214747
238	0x3d5635be	0.052297346
239	0x3e4012d5	0.18757184
240	0x3df4c779	0.11952109
241	0xbadc64f3	-0.0016814753
242	0xbd727c83	-0.059200775
243	0x3db1894d	0.08668766
244	0xbe05d547	-0.1306964
245	0x3c04c3e3	0.008103344
246	0xbdd08326	-0.101812646
247	0x3c01c324	0.00792006
248	0xbdd1430e	-0.10217868
249	0xbcaa0394	-0.02075366
250	0xbd8ee9e4	-0.06978205
251	0xb96a93b2	-0.00022371
252	0x3ba60d09	0.005067472
253	0xbdfd2641	-0.12360812
254	0x3da1ee17	0.0790674
255	0x3e051512	0.12996319

layers.0.bias f4 [16]
0	0x3dd5754e	0.10422765
1	0xbe0a8deb	-0.135307
2	0xbb81e939	-0.00396457
3	0x3e00dfda	0.12585393
4	0x3dec3ae6	0.115346715
5	0x3d84e0e9	0.06488211
6	0xbba3a633	-0.0049941777
7	0x3e26186a	0.1622025
8	0x3d4e79d0	0.05040914
9	0x3d8d0f7e	0.068877205
10	0xbe34ea89	-0.17667593
11	0x3e0e3b72	0.13889864
12	0xbe1145fb	-0.14186852
13	0x3c50b950	0.012739494
14	0xbbf29ae0	-0.0074037164
15	0x3cfc0e00	0.030768394

layers.2.weight f4 [8, 16]
0	0x3e0aab0f	0.13541816
1	0x3ea30309	0.31838253
2	0xbdb3cc00	-0.08779144
3	0xbe8584a3	-0.26077756
4	0x3e314bb8	0.1731404
5	0x3e8a25e1	0.26982024
6	0x3d097c0a	0.03356556
7	0xbd417541	-0.047230963
8	0x3dbae070	0.09124839
9	0x3d3980d3	0.045288872
10	0x3e4a6f8d	0.19769116
11	0xbe2d9f02	-0.16955188
12	0x3e8fd0e9	0.28089073
13	0x3e3ebe14	0.18627197
14	0xbe53a116	-0.20666918
15	0x3e1569e6	0.14591178
16	0x3e95703d	0.29187194
17	0xbe3fb33d	-0.18720718
18	0x3db7996a	0.08964808
19	0x3da8b443	0.08237507
20	0x3d221908	0.039574653
21	0xbe86b905	-0.26313034
22	0x3b416154	0.0029507475
23	0x3e74ecc8	0.2391845
24	0x3dc265b0	0.094920516
25	0xbe914183	-0.28370294
26	0xbc960686	-0.018313657
27	0x3e1525ab	0.1456515
28	0xbd6cf8f4	-0.057854608
29	0x3e764abe	0.2405195
30	0x3e6dd576	0.2322596
31	0x3d86f28c	0.06589231
32	0xbe22606e	-0.15857098
33	0xbdd64fe4	-0.10464457
34	0xbdf5bfa4	-0.11999443
35	0xbe3daebe	-0.1852369
36	0x3e46aa46	0.19400892
37	0x3d504e90	0.050856173
38	0xbe5e477c	-0.21706957
39	0xbe22e30c	-0.15906924
40	0xbe55b256	-0.20868811
41	0xbd0d3838	-0.034477443
42	0xbe3d4cdc	-0.18486351
43	0x3e32eeb0	0.17473865
44	0x3e0895c0	0.13338375
45	0x3e4ccd4e	0.20000193
46	0x3d0c4fd0	0.034255803
47	0x3e5e4234	0.21704942
48	0x3e396e71	0.18108536
49	0x3e67ba09	0.2262956
50	0xbe67bef1	-0.22631432
51	0xbdd9dc8c	-0.10637769
52	0xbda9a6e4	-0.08283785
53	0x3ce581ad	0.028015936
54	0x3e64521a	0.22296944
55	0x3d4f10ad	0.050553013
56	0xbcde4e60	-0.027136981
57	0x3e1a1f3c	0.15050977
58	0x3ec1e3dd	0.37869158
59	0xbe3206dc	-0.17385429
60	0x3e5835e3	0.21114306
61	0x3d7c6e38	0.06162855
62	0xbe0a3ed6	-0.13500533
63	0x3cf4fdd0	0.029906183
64	0x3e5ee72e	0.21767876
65	0x3e103767	0.14083634
66	0xbe1a7d41	-0.15086843
67	0xbe0926fe	-0.1339378
68	0xbdcf4c94	-0.10122028
69	0x3e5c1512	0.21492413
70	0x3e3c12b2	0.18366507
71	0xbd1da382	-0.03848601
72	0xbdc88b88	-0.097922385
73	0xbe4004d0	-0.18751836
74	0xbd3700b0	-0.04467839
75	0x3e23bf7a	0.15991011
76	0xbdeb9a65	-0.11504058
77	0xbba48d80	-0.005021751
78	0x3d955c7c	0.072930306
79	0x3e72dc14	0.23716766
80	0x3e93a77e	0.28838724
81	0xbeabf8c6	-0.33588237
82	0x3d66f65d	0.056387294
83	0x3d300e82	0.042982586
84	0x3e01538c	0.12629527
85	0xbe9f323f	-0.31093022
86	0xbe0f54c2	-0.13997176
87	0xbd426363	-0.047458064
88	0xbca378c0	-0.019955039
89	0x3cd71640	0.026255727
90	0xbe7a73fc	-0.24458307
91	0x3dcb5c8b	0.099297605
92	0xbe2f4cf2	-0.17119196
93	0x3c7f1f00	0.015571356
94	0xbda3b054	-0.07992616
95	0xbe4eb438	-0.20185935
96	0x3d0283b8	0.031863898
97	0xbe6e0249	-0.23243059
98	0xbdea73df	-0.11447882
99	0x3e0b1eb1	0.13585927
100	0x3e01ae34	0.1266411
101	0x3e349058	0.17633188
102	0x3c8d1ed6	0.017226618
103	0xbe5bb745	-0.2145663
104	0xbc80af70	-0.015708655
105	0x3e629ddb	0.2213053
106	0x3c870e2a	0.016486246
107	0xbe7206b8	-0.23635375
108	0x3d009319	0.031390283
109	0x3e3b0f2c	0.18267506
110	0xbe7c1986	-0.24619111
111	0x3dedb4d0	0.11606753
112	0x3e436f1d	0.19085355
113	0xbe64889f	-0.22317742
114	0x3c90cdd2	0.017676268
115	0xbd6759e3	-0.056482207
116	0x3e7ae806	0.24502572
117	0xbeb21121	-0.34778693
118	0x3e5eba11	0.21750666
119	0x3dddd6a3	0.10831954
120	0xbe773e82	-0.24144939
121	0xbde423ec	-0.11139664
122	0xbe59dce6	-0.21275672
123	0x3ddc8d02	0.107690826
124	0xbd6e0e09	-0.058118854
125	0x3e324590	0.17409348
126	0xbe26cd70	-0.16289306
127	0x3d4b1308	0.049578696

layers.2.bias f4 [8]
0	0x3e374b43	0.17899804
1	0xbd8b163e	-0.06791352
2	0x3e52bb4a	0.20579258
3	0xbd4da4f7	-0.05020615
4	0x3e64b581	0.22334863
5	0xbd8b4e14	-0.068020016
6	0xbcc1cb50	-0.023656517
7	0x3ca55a38	0.020184621

layers.4.weight f4 [1, 8]
0	0xbe8b15b5	-0.27165
1	0x3e7420f7	0.238407
2	0xbe138178	-0.14404857
3	0xbea081ff	-0.3134918
4	0x3c9ae8da	0.01890986
5	0x3eab47c5	0.33453193
6	0xbe843404	-0.25820935
7	0x3f01053b	0.50398606
