models/model.ckpt (torch, 10199 bytes, 5 tensors)

layers.0.weight f4 [16, 117]
-0.2787835 0.08742745 0.061286464 -0.003074742 0.078949705 0.018670522 -0.021903025 0.03403228
0.042488415 0.013123192 -0.017748626 -0.016447416 -0.01657287 -0.014333478 0.020676525 0.013321936
0.048240744 0.021033023 0.08981491 0.0668511 0.067389384 -0.057850365 0.065287754 0.07356495
0.06055779 -0.042257927 0.051326293 0.070845924 -0.08928508 0.0645073 0.05548585 -0.08170175
-0.012112844 -0.028931143 -0.014542229 0.03912105 -0.02333459 -0.07153063 0.03785241 0.050556704
-0.016785696 0.08933453 -0.025205836 -0.06885152 -0.07047156 -0.079681516 0.06328374 -0.030093793
0.034533516 -0.06541702 -0.065264374 0.067493014 0.033665653 -0.039075524 0.047958653 -0.053240422
-0.008250171 -0.06604599 0.016308581 -0.014676318 -0.07103608 -0.07874303 -0.030221162 0.012860434
-0.044854715 -0.06799686 0.047684237 0.019838674 0.086652674 0.07308034 0.041234255 0.05709895
-0.07440196 -0.054789662 0.05547207 0.087682396 0.060076237 -0.040128842 0.061646145 -0.096937105
0.03177617 -0.019904263 0.057825 0.08289849 0.08512693 0.08661068 0.054418214 -0.024591533
-0.0045437356 -0.02073947 0.05585082 0.0017927039 -0.04925074 -0.04615004 -0.016565474 0.03146673
0.07180578 0.011431079 -0.0664428 0.048716284 -0.04808377 0.051829074 0.049485367 0.006059924
-0.0070647816 0.021730965 0.038614582 0.073299296 -0.040787023 0.064168915 0.0023966345 0.019569539
-0.06852002 0.0080481935 0.08335206 0.042060275 -0.0008183935 -0.010185505 0.0225983 0.072921045
0.088561945 -0.005682664 0.018165024 -0.009888278 0.04975479 -0.043468323 0.057380047 0.016674437
-0.004258247 0.020724332 0.06541999 -0.029769473 -0.09162134 -0.0029199722 -0.07140316 0.06039196
0.09180504 0.025129236 0.09199213 0.060627177 -0.03657789 0.07503177 -0.082710706 -0.07440398
-0.049760997 -0.036824077 0.012216996 0.035547514 0.09166795 -0.0061752372 -0.051497262 0.028303292
0.0086019905 -0.058574308 -0.009645315 -0.03303254 0.05161428 0.10611775 0.09956594 0.011029953
-0.027457213 0.08946818 0.013486294 0.022827875 -0.069880314 -0.015347382 0.030397445 0.08796862
-0.086975664 -0.024996877 0.03271681 -0.029673338 -0.0319683 0.021091294 0.06571391 0.02909285
0.06736519 0.057581868 -0.010326178 -0.009232204 0.045654092 0.01294212 0.0448102 -0.0201072
-0.05120958 0.016878866 0.112331025 -0.055791393 -0.023363866 0.037364624 0.0014011841 0.044535324
-0.034557015 -0.017824944 0.028194701 0.028307555 -0.02587169 -0.031056419 0.060244236 0.06693169
0.070549786 0.07427094 0.13782826 0.0025657697 -0.0025152296 0.0014599982 0.13207515 0.026677752
0.005331411 0.09000557 -0.09737967 0.07862565 -0.03723092 -0.06568691 -0.048567407 0.09789045
0.0066656885 -0.08088492 0.035280634 0.024263872 0.06905318 0.11076921 0.053289168 0.0065653785
-0.030952645 0.07352847 0.028838208 -0.060198322 0.07847488 0.06631662 0.030362738 0.06787937
-0.07765533 0.019015636 -0.045712806 -0.08146925 -0.015956186 -0.029749287 0.04613738 0.07312741
0.070627846 -8.672031e-05 -0.033840932 0.051420078 -0.07571187 0.0054672975 -0.058835287 0.0054568183
-0.0590174 -0.01124306 -0.040030517 0.00060698454 0.0036881485 -0.07154643 0.046932694 0.076824516
00000000: b6bc 8ebe 2a0d b33d 8407 7b3d 9c81 49bb
00000010: 62b0 a13d ecf2 983c f96d b3bc 6f65 0b3d
00000020: 5508 2e3d a802 573c 9165 91bc bbbc 86bc
00000030: d4c3 87bc f7d6 6abc d161 a93c 4044 5a3c
00000040: 1698 453d 724d ac3c e1f0 b73d 3be9 883d
00000050: 7203 8a3d 81f4 6cbd 96b5 853d 38a9 963d
00000060: 720b 783d a616 2dbd 853b 523d ab17 913d
00000070: 19db b6bd 671c 843d 2145 633d 3f53 a7bd
00000080: f374 46bc 0101 edbc 8742 6ebc 653d 203d
00000090: 2f28 bfbc a77e 92bd 210b 1b3d 8c14 4f3d
000000a0: 2882 89bc 06f5 b63d 787c cebc 0702 8dbd
000000b0: 6553 90bd 1030 a3bd e89a 813d 4287 f6bc
000000c0: 0473 0d3d 5cf9 85bd 54a9 85bd c739 8a3d
000000d0: ffe4 093d a80d 20bd 4b70 443d a112 5abd
000000e0: ba2b 07bc 1f43 87bd 9399 853c f074 70bc
000000f0: 5d7b 91bd 0744 a1bd 5f92 f7bc 92b4 523c
00000100: 94b9 37bd f041 8bbd 8c50 433d b784 a23c
00000110: f576 b13d 25ab 953d 40e5 283d 97e0 693d
00000120: 0e60 98bd 206b 60bd ae36 633d d492 b33d
00000130: 8012 763d 245e 24bd ab80 7c3d f686 c6bd
00000140: bb27 023d 440e a3bc e8d9 6c3d afc6 a93d
00000150: 0757 ae3d f160 b13d a2e5 5e3d 2f74 c9bc
00000160: 9ee3 94bb d2e5 a9bc d4c3 643d 29f9 ea3a
00000170: 25bb 49bd d307 3dbd 51b4 87bc 42e3 003d
00000180: e90e 933d 6c49 3b3c 2a13 88bd ba8a 473d
00000190: 7df3 44bd b94a 543d 2bb1 4a3d 5492 c63b
000001a0: af7f e7bb 2305 b23c 532a 1e3d f11d 963d
000001b0: 4b10 27bd fe6a 833d db10 1d3b 4c50 a03c
000001c0: 3954 8cbd 92dc 033c 7cb4 aa3d 6547 2c3d
000001d0: 7589 56ba 1be1 26bc 1220 b93c a157 953d
000001e0: f75f b53d a435 babb d1ce 943c 7202 22bc
000001f0: aecb 4b3d d70b 32bd 5707 6b3d d498 883c
00000200: c488 8bbb 13c6 a93c eafa 853d 1cdf f3bc
00000210: f8a3 bbbd 015d 3fbb d23b 92bd 8f5d 773d
00000220: 4804 bc3d d4db cd3c 5f66 bc3d 3454 783d
00000230: b3d2 15bd 42aa 993d 3b64 a9bd 1d61 98bd
00000240: 30d2 4bbd d8d4 16bd cc29 483c 459a 113d
00000250: 68bc bb3d a559 cabb cbee 52bd 4edc e73c
00000260: 5def 0c3c 9deb 6fbd 6207 1ebc 214d 07bd
00000270: 7f69 533d 4354 d93d 3ae9 cb3d fab6 343c
00000280: f3ed e0bc 183b b73d 9ef5 5c3c 8601 bb3c
00000290: 691d 8fbd 9673 7bbc 1004 f93c e428 b43d
000002a0: 4c20 b2bd 40c6 ccbc 1002 063d 8015 f3bc
000002b0: 31f1 02bd a6c7 ac3c 0495 863d 2154 ee3c
000002c0: c3f6 893d f7da 6b3d 212f 29bc ac42 17bc
000002d0: c9ff 3a3d 300b 543c e68a 373d dbb7 a4bc
000002e0: 23c1 51bd 8c45 8a3c cf0d e63d 8485 64bd
000002f0: 9465 bfbc a60b 193d f0a7 b73a ac6a 363d
00000300: a88b 0dbd 9e05 92bc 93f8 e63c 3fe5 e73c
00000310: def0 d3bc 086a febc a9c2 763d 7b13 893d
00000320: 687c 903d 5d1b 983d da22 0d3e 7926 283b
00000330: 8dd6 24bb 695d bf3a b53e 073e 4d8b da3c
00000340: 1eb3 ae3b d754 b83d fe6e c7bd 7c06 a13d
00000350: 737f 18bd dc86 86bd 9eee 46bd ca7a c83d
00000360: d96b da3b fea6 a5bd 6d82 103d 07c5 c63c
00000370: c16b 8d3d f8da e23d be45 5a3d 6322 d73b
00000380: 6790 fdbc 1896 963d 1b3e ec3c 8492 76bd
00000390: 70b7 a03d 02d1 873d 47bb f83c 5704 8b3d
000003a0: c209 9fbd aec6 9b3c 5a3d 3bbd 5ad9 a6bd
000003b0: 8cb6 82bc c7b4 f3bc 8dfa 3c3d d3c3 953d
000003c0: 55a5 903d 9ddd b5b8 ca9c 0abd dc9d 523d
000003d0: d30e 9bbd 0427 b33b 45fd 70bd 1ccf b23b
000003e0: 3bbc 71bd d034 38bc 0af7 23bd 0b1e 1f3a
000003f0: ddb4 713b ef86 92bd 7f3c 403d 2c56 9d3d

layers.0.bias f4 [16]
0.019897321 0.064803705 -0.08243273 -0.053353507 -0.014554265 -0.089011274 -0.086730264 -0.06994575
0.05980299 -0.01239565 -0.08271247 -0.059435666 0.046873517 0.05216617 0.064224616 -0.029620554
00000000: b5ff a23c ceb7 843d 7ed2 a8bd 3589 5abd
00000010: 0375 6ebc 8b4b b6bd a39f b1bd b83f 8fbd
00000020: fbf3 743d 2017 4bbc 2865 a9bd d072 73bd
00000030: 72fe 3f3d 32ac 553d 3288 833d cea6 f2bc

layers.2.weight f4 [8, 16]
0.051395833 0.045585066 -0.085946836 -0.052879147 0.051908694 0.17856102 -0.0846714 0.13722399
0.070445955 -0.19617543 0.11330935 -0.26729417 -0.14854655 -0.05752806 -0.1118403 0.058460314
-0.04321342 0.019229667 0.20024785 0.23845777 0.05945565 0.18406913 0.16921157 -0.17466363
-0.06958044 -0.11676341 0.13863337 -0.09110119 -0.0055727065 0.022461127 -0.054034088 0.15461664
0.1907415 -0.03470674 0.050288327 -0.14856751 0.039131287 0.12171851 -0.21428005 0.117006905
0.11298093 0.05883357 0.24336115 0.10383776 -0.020286202 -0.23068358 -0.16006418 0.20803526
0.14373645 0.22494994 0.08951513 -0.16578253 0.18871213 0.014966776 -0.078566395 0.22446902
0.21425083 0.028089464 0.12162486 -0.03532487 -0.07819465 0.21857804 -0.070554025 0.29848045
0.055605564 -0.012614023 0.0057100207 0.2220007 -0.19965434 -0.13113712 0.06745958 -0.07526034
-0.10735835 0.0022524893 -0.1765992 0.11443387 0.03914264 -0.05941633 -0.13663796 -0.19339468
-0.221074 0.10020093 0.12812309 0.18910053 0.1624904 0.111060515 0.12282643 -0.08552969
-0.1447813 -0.15506738 0.20679435 0.13998897 -0.03686765 -0.0058309804 -0.15014789 0.04364425
0.19265655 -0.18983866 0.18857788 -0.2054534 0.10717212 0.13788687 -0.16338526 -0.27494216
-0.0029871375 -0.07973981 -0.03869593 -0.29684713 0.24923834 0.19215438 0.014325818 -0.06224008
0.2449528 0.12148636 -0.11294648 -0.10876739 -0.11560915 -0.055858802 -0.18166819 0.17789246
-0.07401693 0.14258632 0.13195416 0.03604249 -0.14260247 0.1838163 0.2765084 -0.017443124
00000000: 7084 523d 68b7 3a3d e504 b0bd ce97 58bd
00000010: 369e 543d b3d8 363e 3368 adbd 7284 0c3e
00000020: f845 903d 36e2 48be bc0e e83d c8da 88be
00000030: 961c 18be 8ba2 6bbd 870c e5bd 1574 6f3d
00000040: 8e00 31bd 8987 9d3c c60d 4d3e 462e 743e
00000050: c587 733d 9e7c 3c3e cc45 2d3e 06db 32be
00000060: 3180 8ebd a821 efbd e8f5 0d3e 4393 babd
00000070: 409b b6bb 6600 b83c d952 5dbd d353 1e3e
00000080: bd51 433e a828 0ebd 22fb 4d3d 1522 18be
00000090: 2148 203d 8e47 f93d 3b6c 5bbe 51a1 ef3d
000000a0: 8c62 e73d 78fb 703d aa33 793e e4a8 d43d
000000b0: 402f a6bc 5138 6cbe dde7 23be 3207 553e
000000c0: a62f 133e 4759 663e b553 b73d e5c2 29be
000000d0: c13d 413e 3537 753c 6be7 a0bd 35db 653e
000000e0: 9264 5b3e e01b e63c 7416 f93d d0b0 10bd
000000f0: 8424 a0bd ecd2 5f3e a17e 90bd 6ed2 983e
00000100: a9c2 633d 0cab 4ebc 201b bb3b 2754 633e
00000110: 3072 4cbe cf48 06be 4028 8a3d 1822 9abd
00000120: b2de dbbd 809e 133b 6cd6 34be 4e5c ea3d
00000130: 0854 203d 8a5e 73bd d2ea 0bbe 4109 46be
00000140: 3961 62be 2536 cd3d b332 033e 92a3 413e
00000150: e263 263e b273 e33d 6c8c fb3d 312a afbd
00000160: 8d41 14be fcc9 1ebe e6c1 533e 4559 0f3e
00000170: 8802 17bd cf11 bfbb 5ec0 19be 50c4 323d
00000180: c247 453e 1165 42be 8f1a 413e 6062 52be
00000190: 0e7d db3d 3732 0d3e 774e 27be 38c5 8cbe
000001a0: dac3 43bb a04e a3bd a07f 1ebd 59fc 97be
000001b0: 5638 7f3e 1ec4 443e d6b6 6a3c 74ef 7ebd
000001c0: e8d4 7a3e d7cd f83d 7c50 e7bd 70c1 debd
000001d0: 7dc4 ecbd 33cc 64bd 3a07 3abe 7129 363e
000001e0: 3096 97bd 2602 123e fe1e 073e 4aa1 133d
000001f0: 6206 12be 573a 3c3e 8292 8d3e e2e4 8ebc

layers.2.bias f4 [8]
0.2438117 -0.11105799 0.21687965 0.23263653 0.052385036 -0.19844858 0.16159727 0.14422774
00000000: c6a9 793e 5f72 e3bd b315 5e3e 4538 6e3e
00000010: b191 563d 1b36 4bbe c179 253e 70b0 133e

layers.4.weight f4 [1, 8]
0.1927172 -0.1190296 0.073362775 0.3707779 -0.19410583 0.0048616594 -0.14855328 0.16269429
00000000: a857 453e cac5 f3bd 393f 963d 9ad6 bd3e
00000010: aec3 46be 8e4e 9f3b 5a1e 18be 5599 263e
